gru1.pt (torch, 8191 bytes, 10 tensors)

rnn.weight_ih_l0 f4 [30, 2]
-0.06277927 -0.9678105 -0.69226843 -1.8314716 -2.7203808 0.12677757 0.8442537 0.5267482
0.017652612 -4.6209993 2.0004113 -1.026522 0.9751968 1.0356491 0.89993995 -0.41436884
-2.780029 -0.58792895 -2.6796846 -0.049912017 -0.93480486 -1.1349467 1.9830514 0.47055635
-2.39699 -0.20700651 0.11364921 1.0439062 1.6397883 0.42752832 2.427944 0.54524
-0.79616606 -3.9536734 1.0598781 0.17418759 -0.20059927 -0.08123371 0.4368132 -0.84436494
-1.2551125 0.7210448 0.12562346 1.673085 3.2063615 0.008736209 1.9986471 0.7384612
0.09576646 -1.3053722 -0.39036816 0.4327075 0.40774217 -2.3001058 -1.0758222 0.48441836
1.4779857 0.26859984 -4.272018 0.1659236
00000000: 6b92 80bd 6ec2 77bf 8138 31bf a96d eabf
00000010: b81a 2ec0 fbd1 013e 0321 583f f8d8 063f
00000020: 369c 903c 3adf 93c0 bd06 0040 1365 83bf
00000030: 7fa6 793f 2690 843f 7762 663f 2728 d4be
00000040: ffeb 31c0 8382 16bf f47f 2bc0 8b70 4cbd
00000050: 5f4f 6fbf ef45 91bf a1d4 fd3f c3ec f03e
00000060: 4968 19c0 84f9 53be ebc0 e83d b89e 853f
00000070: 95e4 d13f fee4 da3e 6f63 1b40 d994 0b3f
00000080: 8ad1 4bbf fc08 7dc0 16aa 873f 3b5e 323e
00000090: e569 4dbe dc5d a6bd fba5 df3e 4d28 58bf
000000a0: 87a7 a0bf 6496 383f 70a3 003e a627 d63f
000000b0: 0735 4d40 5122 0f3c abd3 ff3f cb0b 3d3f
000000c0: 3521 c43d 7016 a7bf 56de c7be d68b dd3e
000000d0: 95c3 d03e ef34 13c0 8bb4 89bf af05 f83e
000000e0: a32e bd3f eb85 893e 5fb4 88c0 e0e7 293e

rnn.weight_hh_l0 f4 [30, 10]
0.09360182 0.19120695 1.4424225 -0.36542886 -0.9720717 -2.6541266 0.1400054 -1.744356
-1.7899592 -0.28205302 1.9120916 -4.0022664 -1.392617 -3.3185658 -2.3316553 2.8183897
0.6599335 0.41119578 1.0881531 0.5372356 -0.21729523 0.050597504 -0.8150125 -0.51451296
1.357902 -1.0761119 0.16144775 -0.6232282 -0.005963457 0.6215994 0.22856776 0.14557293
1.3828621 0.43188336 0.2932183 0.26119596 -0.55220103 0.6440919 1.1892084 -0.35531074
0.27017003 -1.9250165 0.0032344554 -0.1258602 -1.4949864 -4.342045 -0.15025283 -0.75359213
1.564217 -1.0931166 -0.008268634 0.38027713 0.8957607 1.5092667 -1.0532135 1.2284052
-0.8504247 1.0845021 -1.3137925 0.21843827 -1.9254016 6.161216 1.6426988 1.7384669
-0.18626606 -0.51012146 0.15324846 1.4896876 -1.0709555 -4.607754 -0.94186646 0.3997175
-2.145878 0.77439487 0.8028494 -0.60226876 -0.87712044 -0.45407233 -3.016613 4.5465503
0.15581793 1.1995949 -1.4337393 -1.0425723 0.2961666 0.06053409 -1.0766052 0.40720725
2.0701957 -0.3180581 -0.21343586 1.2980862 -5.133296 0.70022756 2.6800783 0.53058225
-0.87334317 0.74084365 -2.4314203 1.1171854 -1.4661835 -0.0395626 0.6442827 2.6722486
1.9634033 -0.8535805 -0.53062046 -1.5248698 -2.3539462 0.41123793 -0.8714971 2.9178345
-3.8102443 1.6394463 -0.082479514 0.26595244 -0.16134414 -0.5134209 -0.99024975 2.6803768
-0.4336877 -0.25578207 -1.9130278 -1.6854937 -1.3083271 -1.6199338 2.174323 -1.9570686
-2.3809834 3.6536522 0.35069364 0.76198304 -2.2866108 1.3792614 -1.5557996 1.9136226
-0.9364115 0.44075984 -0.3020885 1.703235 0.21767437 2.4660456 1.746745 -0.19160035
0.11625899 0.9040007 -0.6117691 -1.529024 0.16920668 -1.4713371 -1.0188607 -0.87102926
-0.25264663 -0.78199947 -1.235682 -0.5092715 0.4244833 -0.2625401 -0.16216625 -0.9318113
-0.98861694 0.501079 1.0130925 0.9076663 -1.7055007 -0.4537712 0.14636923 -1.0111458
-0.62596667 -0.17962639 1.1221702 -0.047848146 -1.0451885 -0.023377722 0.63533664 4.263831
0.21872745 -0.58404696 2.2227895 1.0833273 0.31795976 0.3144737 0.48446342 0.021141266
1.5055566 -0.39518985 -0.08919355 -0.15888216 -1.0618458 1.139288 0.7602095 -0.40619507
1.1743857 -0.15472831 -4.0117416 4.381098 0.2408201 2.8222623 0.78505224 3.3386166
0.23814628 -0.5146595 -1.4925267 0.53759694 -0.4172628 2.6015654 -0.67100424 -0.21400042
2.1428034 0.72172844 -1.4007174 1.7157632 1.8706619 -0.82311916 0.54342216 -1.4084255
0.81919664 -1.8844473 -1.4741688 0.981479 0.39514518 -0.29515365 -2.114833 -1.7965299
-0.5536713 1.0967202 0.048057098 -0.35089484 -2.139204 1.412755 0.12019829 0.112191744
0.6488457 0.7344044 0.40094802 -0.22073962 -1.4676178 1.1194131 0.3221258 -0.89597255
-2.6670873 -2.8307948 0.6873976 0.44837645 -0.6863568 -4.362764 0.15624405 0.63311607
-0.69743615 -1.1266067 -1.9474977 -1.911812 -0.7156571 -1.5769116 0.32231164 -3.5277836
00000000: 50b2 bf3d c1cb 433e 4da1 b83f 7e19 bbbe
00000010: b1d9 78bf 36dd 29c0 935d 0f3e 0f47 dfbf
00000020: 621d e5bf 4169 90be 6bbf f43f 9112 80c0
00000030: 4641 b2bf 6263 54c0 d739 15c0 7f60 3440
00000040: 67f1 283f 4188 d23e 9a48 8b3f 4688 093f
00000050: a482 5ebe 543f 4f3d a9a4 50bf 1fb7 03bf
00000060: bccf ad3f 09be 89bf 8f52 253e e28b 1fbf
00000070: 1a69 c3bb 2321 1f3f ab0d 6a3e 1211 153e
00000080: a001 b13f d11f dd3e b620 963e 7abb 853e
00000090: 0c5d 0dbf 35e3 243f fb37 983f 4aeb b5be
000000a0: ba53 8a3e f166 f6bf 28f9 533b 7fe1 00be
000000b0: b75b bfbf 08f2 8ac0 e1db 19be 6aeb 40bf
000000c0: 4338 c83f 3feb 8bbf 2a79 07bc afb3 c23e
000000d0: 9350 653f a72f c13f b3cf 86bf 623c 9d3f
000000e0: 6fb5 59bf f7d0 8a3f 5a2a a8bf 48ae 5f3e
000000f0: 8f73 f6bf ae28 c540 f443 d23f 1586 de3f
00000100: 88bc 3ebe 5297 02bf 2aed 1c3e 15ae be3f
00000110: 1215 89bf b972 93c0 291e 71bf c6a7 cc3e
00000120: 1156 09c0 be3e 463f 8a87 4d3f 492e 1abf
00000130: f78a 60bf 2b7c e8be 3010 41c0 577d 9140
00000140: bc8e 1f3e 538c 993f c584 b7bf 0273 85bf
00000150: 26a3 973e 98f2 773d 33ce 89bf 787d d03e
00000160: 167e 0440 83d8 a2be ee8e 5abe b027 a63f
00000170: f643 a4c0 1d42 333f 6786 2b40 3dd4 073f
00000180: 6b93 5fbf eea7 3d3f 649c 1bc0 eeff 8e3f
00000190: e7ab bbbf 650c 22bd b6ef 243f 1f06 2b40
000001a0: cd50 fb3f 4084 5abf bed6 07bf ef2e c3bf
000001b0: 0ea7 16c0 c78d d23e 6f1a 5fbf cdbd 3a40
000001c0: 0bdb 73c0 60d9 d13f 05eb a8bd eb2a 883e
000001d0: 6637 25be 8d6f 03bf 0281 7dbf 4b8b 2b40
000001e0: 500c debe def5 82be 18de f4bf 42be d7bf
000001f0: 4377 a7bf fe59 cfbf 1c28 0b40 3981 fabf
00000200: 0862 18c0 70d5 6940 1e8e b33e 5211 433f
00000210: d557 12c0 a38b b03f 7124 c7bf 96f1 f43f
00000220: aab8 6fbf 46ab e13e 58ab 9abe 9b03 da3f
00000230: 08e6 5e3e b1d3 1d40 5795 df3f e232 44be
00000240: 3119 ee3d 976c 673f e69c 1cbf 0fb7 c3bf
00000250: 8444 2d3e c654 bcbf 076a 82bf c6fb 5ebf
00000260: e65a 81be 1e31 48bf d42a 9ebf 9e5f 02bf
00000270: e055 d93e a86b 86be e90e 26be 2f8b 6ebf
00000280: 0016 7dbf b746 003f 04ad 813f d25c 683f
00000290: d94d dabf b354 e8be d1e1 153e 3a6d 81bf
000002a0: 5a3f 20bf fbef 37be 46a3 8f3f 6bfc 43bd
000002b0: bdc8 85bf a382 bfbc 6ca5 223f 4e71 8840
000002c0: 17fa 5f3e 1a84 15bf 2f42 0e40 78aa 8a3f
000002d0: 9fcb a23e b202 a13e 970b f83e 7330 ad3c
000002e0: 14b6 c03f 5356 cabe 1cab b6bd 01b2 22be
000002f0: 90ea 87bf 30d4 913f 179d 423f cdf8 cfbe
00000300: 4552 963f 1971 1ebe 3060 80c0 f431 8c40
00000310: 8b99 763e f29f 3440 2ff9 483f e5ab 5540
00000320: 9edc 733e bac0 03bf 1d0b bfbf f49f 093f
00000330: 78a3 d5be 0c80 2640 efc6 2bbf ed22 5bbe
00000340: b123 0940 32c3 383f b54a b3bf 219e db3f
00000350: d971 ef3f f0b7 52bf b71d 0b3f 4947 b4bf
00000360: dfb6 513f 9235 f1bf 90b1 bcbf 3542 7b3f
00000370: 7850 ca3e 611e 97be 6d59 07c0 b1f4 e5bf
00000380: 67bd 0dbf 5461 8c3f 85d7 443d 7da8 b3be
00000390: b8e8 08c0 28d5 b43f 852a f63d c9c4 e53d
000003a0: c01a 263f ed01 3c3f 0f49 cd3e 9109 62be
000003b0: e6da bbbf ee48 8f3f aced a43e 755e 65bf
000003c0: 8fb1 2ac0 be2b 35c0 4af9 2f3f 9991 e53e
000003d0: 14b5 2fbf c39b 8bc0 71fe 1f3e e513 223f
000003e0: 2d8b 32bf a634 90bf 9b47 f9bf 41b6 f4bf
000003f0: 4e35 37bf 3dd8 c9bf 0806 a53e 35c7 61c0

rnn.bias_ih_l0 f4 [30]
0.07579039 -0.85735285 0.004698966 1.308102 0.10377967 1.1680832 0.81368613 0.81944674
1.3989743 0.83229685 -0.65177023 -0.4083952 0.29673478 -0.5485766 0.5339248 -0.6452757
-0.8595006 0.84224236 0.3828372 0.18446752 -0.54938185 -0.20757346 -2.9477189 2.476428
-0.20658013 -0.25623655 -0.63972634 -0.27369648 -2.1909807 0.9210162
00000000: fe37 9b3d 7a7b 5bbf c9f9 993b e36f a73f
00000010: 708a d43d c083 953f bc4d 503f 43c7 513f
00000020: 9711 b33f 6811 553f 6ada 26bf 2d19 d1be
00000030: 9fed 973e 846f 0cbf 4caf 083f ca30 25bf
00000040: 3b08 5cbf 329d 573f 3d03 c43e 0ee5 3c3e
00000050: 4aa4 0cbf 238e 54be 6da7 3cc0 cc7d 1e40
00000060: be89 53be 7031 83be 1bc5 23bf f221 8cbe
00000070: 0739 0cc0 b8c7 6b3f

rnn.bias_hh_l0 f4 [30]
-0.4679864 -0.8753497 -0.44842374 1.2481018 0.18028966 0.7337685 1.1545973 0.3202215
1.2733444 0.55410767 -0.37515238 0.08411336 -0.1803627 -0.6874823 1.076114 -0.95913446
-0.7147607 0.6197987 0.3145606 0.31117025 -0.17624776 -0.104850866 -1.3401839 2.312764
0.44796747 0.4055494 -1.7309859 -0.52266103 -1.3502455 1.3318264
00000000: ea9b efbe eb16 60bf cc97 e5be cdc1 9f3f
00000010: da9d 383e 41d8 3b3f d8c9 933f 13f4 a33e
00000020: f3fc a23f 00da 0d3f f913 c0be a043 ac3d
00000030: 00b1 38be d7fe 2fbf 1bbe 893f d689 75bf
00000040: 8ffa 36bf 21ab 1e3f 160e a13e b551 9f3e
00000050: 4b7a 34be 0dbc d6bd 258b abbf 5304 1440
00000060: fe5b e53e 2ca4 cf3e f290 ddbf 1dcd 05bf
00000070: d8d4 acbf 4a79 aa3f

rnn.weight_ih_l1 f4 [30, 10]
1.1656983 -0.2606134 1.4716895 0.86434484 4.360012 -2.24402 0.7072523 -0.4742961
-3.821378 0.9906121 -0.7410262 0.06948911 -0.5864725 0.27443758 -1.6020522 -1.418846
0.6119615 0.6116369 0.63826543 0.9498554 0.5470907 -2.638526 -2.8070853 1.5314587
0.091085695 -0.37440118 -0.56075984 -0.42634547 0.2799785 1.2724674 0.4494051 0.9105891
-2.9903855 -0.43231162 -2.4790995 0.4870262 -0.48689276 1.2749698 2.0901988 0.7367938
0.062163956 -0.6535539 1.3375802 -0.5899861 -0.47669038 -0.545984 -0.8607441 -0.48318797
0.411678 -0.53498805 -0.8275196 -0.3751677 -0.31246746 1.4168208 5.1549354 -3.5404193
-0.7537968 -0.3294492 -2.6737876 -0.35737875 0.9067483 0.048192415 -1.667052 -1.2658939
-2.7275257 1.1225315 0.31084836 1.9613659 0.42289874 2.0310526 -2.8872433 0.44192863
2.792444 0.51904273 2.7950318 -2.8142357 0.47906387 -1.1345929 -0.85203177 -1.0738612
0.9247547 -1.1509316 -1.4810472 -2.0112224 2.5893078 -2.4767332 0.33728185 -0.21925542
1.3650149 2.9654038 -0.39444265 -1.1062578 0.5160685 -1.1477908 0.90320945 -0.5298783
-0.016487854 3.7290661 1.5218248 -1.0033634 -0.75692004 0.31637242 0.928306 -0.3289385
-1.097301 -0.6490749 -1.5863864 0.6919987 0.623854 -0.32602772 -0.04489825 -0.19013616
0.30722108 1.9305161 1.8440887 0.89465034 -0.5385321 0.14419533 -0.15454334 0.77269596
-1.4716595 -0.7955329 -1.1859033 2.2728565 3.6327374 -2.1953793 -1.0249484 0.921601
-1.191365 2.8747792 -1.4199291 -1.3256344 -0.35091564 0.5622564 1.3816919 0.5728507
0.55765235 0.09924461 0.4481571 0.22899114 1.2916863 0.43149474 -1.019883 -0.14249814
-2.1313298 -1.1181072 -1.0916424 2.8245554 -0.8772942 0.27299154 -0.28902864 -0.5837164
1.5162911 0.17680347 -0.12707679 0.61614174 -1.3179425 0.0041455794 -0.14828873 0.094227
-0.35320812 0.34997448 1.6323202 0.42034602 0.03217419 0.9665842 -0.20366485 -0.6312962
-0.27020013 -0.2882342 1.8697616 -0.9683945 0.7574792 -0.24819449 -1.1434866 -1.5776285
-1.6550022 -0.56115514 -0.02484346 -0.72154313 0.9416783 -0.8100828 2.5716503 4.416856
0.85347503 -1.3040341 -1.145902 0.26178446 -1.0150727 -1.4694676 -3.7007463 -0.97743934
-1.7387727 0.8293423 -0.71772814 2.010264 1.0682932 -0.19997461 -4.135514 0.7256027
0.48476148 -1.7996712 0.12104698 -1.0482913 -1.2349032 -1.2801778 -0.46528843 -0.5435342
2.1450212 -0.6581147 -1.8203154 -2.4394445 4.586847 3.0864575 3.3887691 -2.3218696
-0.2734977 -2.4946158 -0.13566585 -0.757993 0.23283304 6.305815 -1.056187 2.045995
0.27770537 8.422102 -0.015990192 0.47378483 0.39000082 -0.043636728 0.30358422 -1.4275516
3.030356 -0.14088526 -1.2723664 -0.95661277 -0.05386357 -0.35615593 0.86039275 -0.24398421
-0.49581224 -0.22048847 0.4735462 0.31003794 0.22429651 -0.65761167 -0.8929663 0.066912286
-0.5954726 -0.27026522 -1.6400379 -1.1444745 -0.8801823 0.69931287 2.2642236 -2.8488662
00000000: 9a35 953f 1f6f 85be 5260 bc3f b445 5d3f
00000010: 3885 8b40 069e 0fc0 7d0e 353f f0d6 f2be
00000020: 7591 74c0 c198 7d3f e5b3 3dbf 4e50 8e3d
00000030: 1023 16bf 1583 8c3e 0c10 cdbf bf9c b5bf
00000040: 82a9 1c3f 3c94 1c3f 5d65 233f b929 733f
00000050: 230e 0c3f 9cdd 28c0 49a7 33c0 d706 c43f
00000060: 238b ba3d 83b1 bfbe f58d 0fbf f449 dabe
00000070: 5859 8f3e 36e0 a23f 6d18 e63e 5e1c 693f
00000080: 7a62 3fc0 f357 ddbe 91a9 1ec0 805b f93e
00000090: 024a f9be 3632 a33f d1c5 0540 859e 3c3f
000000a0: a29f 7e3d 4f4f 27bf d435 ab3f 5409 17bf
000000b0: c310 f4be 9cc5 0bbf ba59 5cbf 6a64 f7be
000000c0: 75c7 d23e faf4 08bf 53d8 53bf fb15 c0be
000000d0: bcfb 9fbe 625a b53f 3bf5 a440 3b96 62c0
000000e0: d4f8 40bf 91ad a8be 561f 2bc0 59fa b6be
000000f0: a820 683f 6965 453d f661 d5bf d008 a2bf
00000100: c88f 2ec0 1daf 8f3f 8427 9f3e 0a0e fb3f
00000110: 2f86 d83e c4fc 0140 98c8 38c0 7844 e23e
00000120: 67b7 3240 fcdf 043f cde1 3240 701c 34c0
00000130: dc47 f53e 573a 91bf c11e 5abf 4974 89bf
00000140: b9bc 6c3f ba51 93bf f492 bdbf deb7 00c0
00000150: 38b7 2540 cc82 1ec0 35b0 ac3e 7e84 60be
00000160: cfb8 ae3f 2dc9 3d40 63f4 c9be db99 8dbf
00000170: 111d 043f cfea 92bf bc38 673f 1ba6 07bf
00000180: 8911 87bc 05a9 6e40 28cb c23f 366e 80bf
00000190: 83c5 41bf 91fb a13e 76a5 6d3f a16a a8be
000001a0: 5c74 8cbf c629 26bf b60e cbbf d426 313f
000001b0: e5b4 1f3f 1bed a6be 3ae7 37bd 0eb3 42be
000001c0: 154c 9d3e 271b f73f 190b ec3f ce07 653f
000001d0: 3ddd 09bf f1a7 133e 9c40 1ebe 67cf 453f
000001e0: 575f bcbf 0ba8 4bbf aecb 97bf 7b76 1140
000001f0: c57e 6840 1881 0cc0 8231 83bf 0bee 6b3f
00000200: a67e 98bf 62fc 3740 3dc0 b5bf 63ae a9bf
00000210: 37ab b3be 09f0 0f3f 48db b03f 58a6 123f
00000220: 4ec2 0e3f c240 cb3d d974 e53e a77c 6a3e
00000230: fa55 a53f e1ec dc3e 878b 82bf 08eb 11be
00000240: b567 08c0 231e 8fbf f0ba 8bbf 84c5 3440
00000250: 5a96 60bf 8cc5 8b3e 90fb 93be 706e 15bf
00000260: d415 c23f f80b 353e 6b20 02be 77bb 1d3f
00000270: 57b2 a8bf a4d7 873b 00d9 17be 16fa c03d
00000280: b2d7 b4be db2f b33e deef d03f 9837 d73e
00000290: 15c9 033d 1072 773f 858d 50be a19c 21bf
000002a0: ac57 8abe 6f93 93be 5954 ef3f b4e8 77bf
000002b0: 28ea 413f b226 7ebe c55d 92bf bbef c9bf
000002c0: 1dd7 d3bf dda7 0fbf 8384 cbbc 0db7 38bf
000002d0: d411 713f 9661 4fbf eb95 2440 e256 8d40
000002e0: 577d 5a3f 97ea a6bf ebac 92bf 9d08 863e
000002f0: e7ed 81bf 8417 bcbf 07d9 6cc0 7739 7abf
00000300: 1b90 debf c74f 543f 08bd 37bf 2aa8 0040
00000310: d5bd 883f 25c6 4cbe 2156 84c0 19c1 393f
00000320: a832 f83e a05b e6bf 7be7 f73d 692e 86bf
00000330: 4f11 9ebf dedc a3bf 493a eebe 0f25 0bbf
00000340: 0748 0940 347a 28bf 1800 e9bf dc1f 1cc0
00000350: 73c7 9240 8588 4540 98e1 5840 8399 14c0
00000360: e407 8cbe c9a7 1fc0 fdeb 0abe d40b 42bf
00000370: c96b 6e3e 3dc9 c940 2331 87bf 95f1 0240
00000380: 662f 8e3e eec0 0641 ddfd 82bc ed93 f23e
00000390: 30ae c73e 6dbc 32bd 646f 9b3e 03ba b6bf
000003a0: 5af1 4140 3a44 10be e7dc a2bf 93e4 74bf
000003b0: 0ca0 5cbd 125a b6be b342 5c3f ffd6 79be
000003c0: 1adb fdbe bbc7 61be a674 f23e 4bbd 9e3e
000003d0: fcad 653e 3d59 28bf 7099 64bf 4f09 893d
000003e0: e470 18bf 3460 8abe c3ec d1bf 247e 92bf
000003f0: a153 61bf 2b06 333f 0ae9 1040 d353 36c0

rnn.weight_hh_l1 f4 [30, 10]
-3.019346 2.2755852 0.28595963 -0.020961128 -0.18850717 3.2863333 1.4709616 1.2708211
-0.9404291 -1.3403174 2.910854 1.8739647 1.1021023 -0.58459157 1.9458679 0.18345436
-4.054379 1.3529373 0.7420286 0.950791 -2.2339203 4.113538 -0.9832424 -0.15872788
-0.1351567 0.2579305 1.1156304 -1.8105526 2.315032 -0.102700785 0.67987084 0.82562494
0.76665497 -1.7940128 -1.0596714 1.4721789 2.657751 -0.59313935 2.0037384 -0.16156168
3.1389372 -3.9676163 -0.42104542 1.0674403 -1.1594509 -0.27342662 -0.5639639 0.047424242
1.5182003 1.0973047 3.7532942 -1.1037726 -1.856625 1.8262994 0.00030748756 0.18838653
2.643499 0.42029724 -1.1415772 -1.7885854 2.440474 1.045601 1.0351886 -1.7529173
-0.31716552 -1.2688812 -0.7017214 2.2571137 3.7236943 -0.14068998 -1.2373817 -3.768872
-2.1759777 1.0759845 -0.088034555 5.8490543 3.1995616 3.750397 -2.2912765 -0.20841499
-0.091327265 1.4984215 -1.0622865 -2.7515671 -0.7313575 1.7507238 1.5284857 0.9249751
-1.2093351 -1.6792847 -1.2985928 -1.648371 -0.23226006 1.6905123 -0.5503696 -3.1328652
-0.5856951 -1.6753608 -0.5258912 0.20883937 6.4448757 0.80593115 0.09096735 0.81490654
-0.9127677 -2.6988263 0.66870147 -3.510133 -1.9741333 0.65323186 -5.8613276 3.0666356
0.36051205 1.6658337 0.7240047 2.1485753 0.18453626 -3.6201377 0.7395778 1.0931919
1.0278678 1.8696091 0.9775126 -0.035600554 1.0400343 2.4067402 1.1406759 3.612719
2.7015653 0.88216096 -0.34077337 -0.2170623 1.1678628 -0.31684673 0.5423616 -0.6109991
-0.11589437 -1.9192015 0.564163 0.31593272 -0.31976163 1.632537 -0.1363795 -1.298492
-0.28111765 1.0074232 4.1882524 0.56547785 -0.8758285 -0.3544107 -3.703413 -0.30259508
0.592744 0.9148894 -0.36625114 1.665279 0.59088 -1.5413762 0.6333908 0.19278489
0.36566013 1.039726 -0.47539836 1.3300654 -0.1935573 -2.3277197 0.4853097 2.0595384
-0.1473107 0.32546386 -1.2633778 -1.3217529 0.8266937 0.64753026 0.21573961 1.7699716
0.031339403 3.4309478 -1.007321 0.30351254 -2.2614045 -1.9094235 0.56658185 0.62973374
0.16606641 0.08344254 1.0898199 1.8638847 3.4207568 0.80509394 -0.25315833 -0.72872394
1.2261204 -0.91668653 -0.28772926 -1.0106199 -1.0580099 -2.9717872 0.85418314 1.1050715
0.06471498 0.1933106 -2.2806687 0.32902324 -1.5711206 -2.0189805 -0.55292356 -2.2317224
-0.8213725 0.07646385 -3.487813 -0.7755505 -0.70035464 1.2181473 -1.2720383 3.2399137
3.300465 -2.442285 -0.31237662 -0.05377935 -1.1958773 2.2968037 0.99832106 0.42147246
1.1432899 -0.67511123 -0.002595767 -0.5127456 2.7545161 0.46783227 -1.1460491 -0.58827287
-0.7353915 -2.775766 -0.22436148 -2.0260289 0.11933956 0.80292046 -1.0021039 0.44334653
2.3612473 -4.377387 -0.40862912 1.06401 -1.3605092 0.74414927 -1.4592367 -0.322886
0.8199061 0.70211834 1.505422 -3.8897464 1.3777187 0.9475647 2.5468748 1.7788782
00000000: f73c 41c0 30a3 1140 4d69 923e acb6 abbc
00000010: 0608 41be 4953 5240 7848 bc3f 44aa a23f
00000020: f6bf 70bf 858f abbf 6f4b 3a40 13de ef3f
00000030: b011 8d3f cba7 15bf 3312 f93f 76db 3b3e
00000040: 79bd 81c0 0d2d ad3f 96f5 3d3f 0a67 733f
00000050: 8df8 0ec0 1aa2 8340 c6b5 7bbf 9089 22be
00000060: 8566 0abe 770f 843e facc 8e3f 30c0 e7bf
00000070: 7c29 1440 ca54 d2bd 040c 2e3f 285c 533f
00000080: 8043 443f 36a2 e5bf 50a3 87bf 5c70 bc3f
00000090: 9818 2a40 fbd7 17bf 403d 0040 6d70 25be
000000a0: 59e4 4840 6ded 7dc0 4493 d7be e2a1 883f
000000b0: e368 94bf 93fe 8bbe f05f 10bf ec3f 423d
000000c0: 6354 c23f 7b74 8c3f f935 7040 6c48 8dbf
000000d0: e3a5 edbf 2ec4 e93f 4836 a139 66e8 403e
000000e0: 162f 2940 3331 d73e 341f 92bf 5ef0 e4bf
000000f0: ba30 1c40 41d6 853f 0f81 843f 985f e0bf
00000100: 8563 a2be b36a a2bf 03a4 33bf 8d74 1040
00000110: 0251 6e40 0911 10be 8662 9ebf 3335 71c0
00000120: 3843 0bc0 dcb9 893f 764b b4bd 742b bb40
00000130: 9ec5 4c40 8106 7040 46a4 12c0 bd6a 55be
00000140: ca09 bbbd 47cc bf3f 01f9 87bf ad19 30c0
00000150: 3f3a 3bbf b817 e03f 6ba5 c33f 2bcb 6c3f
00000160: 7ecb 9abf cdf2 d6bf 4a38 a6bf d2fd d2bf
00000170: 95d5 6dbe b562 d83f 06e5 0cbf dd80 48c0
00000180: 1df0 15bf 3972 d6bf cea0 06bf fdd9 553e
00000190: 6c3c ce40 8151 4e3f 174d ba3d b79d 503f
000001a0: 25ab 69bf 92b9 2cc0 0530 2b3f 05a6 60c0
000001b0: 66b0 fcbf 343a 273f ff8f bbc0 c243 4440
000001c0: 0995 b83e 0a3a d53f 5f58 393f 4282 0940
000001d0: 13f7 3c3e 56b0 67c0 f854 3d3f b6ed 8b3f
000001e0: 2c91 833f 5a4f ef3f 443e 7a3f e3d1 11bd
000001f0: d81f 853f 0808 1a40 ab01 923f ca36 6740
00000200: 72e6 2c40 4dd5 613f d979 aebe 9445 5ebe
00000210: 877c 953f bc39 a2be 36d8 0a3f 706a 1cbf
00000220: 075a edbd 65a8 f5bf fd6c 103f efc1 a13e
00000230: ccb7 a3be f9f6 d03f 11a7 0bbe fc34 a6bf
00000240: a7ee 8fbe 3ef3 803f 2a06 8640 28c3 103f
00000250: 4c36 60bf 5275 b5be b804 6dc0 beed 9abe
00000260: 12be 173f 3136 6a3f 4585 bbbe dd27 d53f
00000270: e943 173f d14b c5bf e625 223f 6769 453e
00000280: ce37 bb3e be15 853f 6a67 f3be 953f aa3f
00000290: e333 46be 5cf9 14c0 837a f83e 7acf 0340
000002a0: 9ed8 16be 33a3 a63e 5db6 a1bf 332f a9bf
000002b0: 33a2 533f 8bc4 253f d8ea 5c3e 6e8e e23f
000002c0: bf5d 003d a694 5b40 e5ef 80bf ff65 9b3e
000002d0: daba 10c0 fd67 f4bf 820b 113f 3b36 213f
000002e0: 500d 2a3e ece3 aa3d 387f 8b3f c693 ee3f
000002f0: aeed 5a40 a31a 4e3f f89d 81be a78d 3abf
00000300: 83f1 9c3f f8ab 6abf 4051 93be fe5b 81bf
00000310: de6c 87bf c331 3ec0 bfab 5a3f fc72 8d3f
00000320: 4a89 843d 37f3 453e 7af6 11c0 bc75 a83e
00000330: 7b1a c9bf fa36 01c0 668c 0dbf 8ad4 0ec0
00000340: 7845 52bf 1499 9c3d 5438 5fc0 7a8a 46bf
00000350: 714a 33bf 40ec 9b3f 27d2 a2bf bf5a 4f40
00000360: d23a 5340 664e 1cc0 d4ef 9fbe bc47 5cbd
00000370: 8212 99bf d5fe 1240 f891 7f3f 3dcb d73e
00000380: 5357 923f 17d4 2cbf be1d 2abb 4c43 03bf
00000390: fe49 3040 b687 ef3e bdb1 92bf 0d99 16bf
000003a0: 9e42 3cbf 26a6 31c0 04bf 65be 75aa 01c0
000003b0: 4d68 f43d 328c 4d3f f144 80bf 51fe e23e
000003c0: ad1e 1740 8e13 8cc0 d637 d1be 7b31 883f
000003d0: 2a25 aebf 9180 3e3f 45c8 babf 5051 a5be
000003e0: 5ee5 513f 07be 333f abb1 c03f 9bf1 78c0
000003f0: 1659 b03f 9a93 723f ffff 2240 48b2 e33f

rnn.bias_ih_l1 f4 [30]
-0.74820346 -0.5908071 0.3887734 1.1042898 1.0555913 0.8348671 -0.8557207 -0.2487397
-0.38658237 0.051849566 1.67178 0.65296924 0.76441485 -0.027609121 0.5258916 1.7401553
0.8339314 1.7696449 1.3886544 -0.26841953 0.6894041 0.17252357 -0.29399258 0.33653477
0.92076313 -0.4700143 0.0443789 0.1713298 -0.52762145 0.7324214
00000000: 438a 3fbf 223f 17bf 4f0d c73e 5e59 8d3f
00000010: 9e1d 873f dab9 553f 8310 5bbf 9fb5 7ebe
00000020: 20ee c5be 3660 543d e3fc d53f fe28 273f
00000030: b1b0 433f 862c e2bc d5a0 063f 69bd de3f
00000040: 877c 553f b983 e23f 6dbf b13f 496e 89be
00000050: c97c 303f 05aa 303e 3286 96be 494e ac3e
00000060: 22b7 6b3f b7a5 f0be a6c6 353d 1471 2f3e
00000070: 3312 07bf f87f 3b3f

rnn.bias_hh_l1 f4 [30]
-0.8915155 -0.3219865 0.35956505 1.0406243 1.2248455 0.72245824 -0.6707602 -0.4556203
-0.44229347 0.15733057 1.8364315 1.0840034 0.36208147 -0.103427544 1.0720483 1.32866
0.36612594 1.6544671 1.5823565 -0.32692322 -0.7862369 0.12354612 1.7714021 1.3803258
1.1356802 2.5901093 0.26165992 -1.5001487 -2.5999181 0.15048715
00000000: 5c3a 64bf 6adb a4be e918 b83e 2d33 853f
00000010: bdc7 9c3f 06f3 383f f1b6 2bbf 1047 e9be
00000020: 4a74 e2be 441b 213e 3010 eb3f a0c0 8a3f
00000030: be62 b93e d2d1 d3bd e138 893f 8811 aa3f
00000040: dc74 bb3e 94c5 d33f a88a ca3f 7b62 a7be
00000050: d246 49bf c005 fd3d 4ebd e23f 84ae b03f
00000060: f85d 913f 5ac4 2540 4af8 853e df04 c0bf
00000070: 0f65 26c0 4e19 1a3e

fc.weight f4 [36, 10]
-0.22293894 0.08059108 -0.013499468 0.14264448 0.16764995 -0.16555828 -0.6755513 0.46845728
-0.13029829 0.08458012 -0.24593955 0.08590357 -0.015344324 0.15355323 0.14233285 -0.14190838
-0.5732598 0.5516614 -0.22512549 0.1535186 -0.25813088 0.082309924 -0.016594226 0.15983813
0.1214954 -0.11593438 -0.47511306 0.6149575 -0.3271533 0.21669559 -0.25590003 0.07972059
-0.017595144 0.16095348 0.105300374 -0.09514778 -0.38286635 0.65159476 -0.43031016 0.27096924
-0.24249265 0.07273934 -0.018115126 0.15672228 0.09441659 -0.07880627 -0.29685703 0.66081357
-0.5319853 0.31684723 -0.220499 0.05266248 -0.018039234 0.14809294 0.08738034 -0.061181657
-0.2195369 0.64287597 -0.62914515 0.35646495 -0.19003703 0.037214886 -0.017574456 0.1361865
0.086506344 -0.039912954 -0.15271653 0.5988385 -0.712544 0.38817358 -0.15005328 0.031379998
-0.01737048 0.12177892 0.091683425 -0.019597184 -0.096812256 0.52485234 -0.77552134 0.4090579
-0.10494811 0.03365873 -0.017410032 0.10556754 0.10470029 -0.0024441916 -0.05161273 0.42259118
-0.81564975 0.4203957 -0.057326846 0.03861775 -0.017749468 0.089160584 0.1221893 0.011273438
-0.019046914 0.29575914 -0.8320358 0.42321682 -0.009651087 0.051395472 -0.018570995 0.074649714
0.14440122 0.023219485 0.0027822806 0.14958851 -0.82213813 0.41716266 0.034658138 0.07331833
-0.019442305 0.06251281 0.1733027 0.03327969 0.017508745 -0.008597093 -0.78549397 0.4038651
0.07735016 0.09576992 -0.020361302 0.053142395 0.20261377 0.033845883 0.024640493 -0.17879851
-0.72513235 0.38009408 0.1118414 0.11361476 -0.020053774 0.04707635 0.23497413 0.033909544
0.026650552 -0.34319428 -0.6456689 0.3520873 0.1390396 0.13258679 -0.018265259 0.04431834
0.2688408 0.033142854 0.02502663 -0.49559987 -0.55013245 0.3193171 0.15725459 0.15184386
-0.0144058 0.04491917 0.30370623 0.032318834 0.023074973 -0.62602913 -0.44332346 0.2839792
0.16926867 0.16103248 -0.008257219 0.047973007 0.33422673 0.026423816 0.018481808 -0.7344501
-0.33209747 0.24454083 0.17079978 0.15472156 0.0012436376 0.053225562 0.361186 0.026502104
0.013433695 -0.8060221 -0.22298187 0.20657344 0.1630931 0.14425442 0.014436406 0.059946723
0.3869585 0.036542702 0.010149748 -0.83229613 -0.12025961 0.1731388 0.15356626 0.12543511
0.030518766 0.0669943 0.40382814 0.048831932 0.0058920872 -0.82301325 -0.027776184 0.1404906
0.1399869 0.100568414 0.050180104 0.07344135 0.41607904 0.0700065 0.0035603684 -0.76847607
0.049122084 0.11324865 0.12127166 0.06303357 0.073033184 0.079145454 0.42281792 0.10429646
0.0043881633 -0.6679569 0.1065835 0.09406661 0.108944885 0.02930999 0.0975409 0.084173426
0.41661608 0.14192611 0.004333814 -0.53515476 0.1465927 0.076309435 0.100156516 0.005614022
0.12359379 0.087406464 0.40450707 0.18496433 0.0058988384 -0.37049618 0.16991211 0.06366324
0.09815018 -0.0026995714 0.15037763 0.089092456 0.3872792 0.23284537 0.009064641 -0.17849837
0.17633653 0.055990957 0.10505032 -0.0072769052 0.17654586 0.08930959 0.3598668 0.28202185
00000000: 1b4a 64be f00c a53d df2c 5dbc 6511 123e
00000010: 6eac 2b3e 1c88 29be eef0 2cbf a2d9 ef3e
00000020: ea6c 05be 5838 ad3d 94d7 7bbe 36ee af3d
00000030: c266 7bbc 0f3d 1d3e b4bf 113e 6e50 11be
00000040: 27c1 12bf ae39 0d3f 4c87 66be fb33 1d3e
00000050: bb29 84be 1b92 a83d 9df0 87bc 9bac 233e
00000060: 95d2 f83d 016f edbd 0542 f3be db6d 1d3f
00000070: a380 a7be 73e5 5d3e 5405 83be 8c44 a33d
00000080: b123 90bc fdd0 243e b9a7 d73d d7dc c2bd
00000090: 0f07 c4be eace 263f 9d51 dcbe 7bbc 8a3e
000000a0: fe4f 78be 5df8 943d 2c66 94bc ce7b 203e
000000b0: 7c5d c13d 2f65 a1bd a5fd 97be 142b 293f
000000c0: 3030 08bf cd39 a23e 7dca 61be 9db4 573d
000000d0: 04c7 93bc ada5 173e 77f4 b23d 9e99 7abd
000000e0: 48ce 60be 8593 243f a80f 21bf 9382 b63e
000000f0: 1199 42be a36e 183d 4ef8 8fbc 7974 0b3e
00000100: 3d2a b13d c47b 23bd b961 1cbe 7b4d 193f
00000110: 4969 36bf b0be c63e 91a7 19be 5088 003d
00000120: 894c 8ebc 3a67 f93d 85c4 bb3d 468a a0bc
00000130: 8145 c6bd b95c 063f 9188 46bf 0970 d13e
00000140: 09ef d6bd bddd 093d 7c9f 8ebc cb33 d83d
00000150: 1b6d d63d bb2e 20bb df67 53bd df5d d83e
00000160: 6cce 50bf 1b3e d73e 8ecf 6abd a52d 1e3d
00000170: 5567 91bc d399 b63d 623e fa3d 3ab4 383c
00000180: 4608 9cbc be6d 973e 4c00 55bf e0af d83e
00000190: 981f 1ebc 0f84 523d 3322 98bc f3e1 983d
000001a0: eadd 133e ca36 be3c ec56 363b bb2d 193e
000001b0: a577 52bf 5896 d53e b1f5 0d3d ec27 963d
000001c0: 7845 9fbc b706 803d 4376 313e 4950 083d
000001d0: 806e 8f3c d2da 0cbc 2216 49bf 68c7 ce3e
000001e0: c369 9e3d 0523 c43d bfcc a6bc d7ab 593d
000001f0: fc79 4f3e fba1 0a3d dcda c93c f516 37be
00000200: 46a2 39bf b19b c23e 1b0d e53d dbae e83d
00000210: d047 a4bc 21d3 403d 0f9d 703e bce4 0a3d
00000220: 4252 da3c 29b7 afbe 8f4a 25bf c944 b43e
00000230: 6660 0e3e d5c4 073e 06a1 95bc 2687 353d
00000240: 80a5 893e cdc0 073d a604 cd3c 44bf fdbe
00000250: 7bd5 0cbf 887d a33e 5907 213e f57c 1b3e
00000260: 4e06 6cbc 2afd 373d 627f 9b3e c160 043d
00000270: ba07 bd3c 7243 20bf 4bfb e2be b965 913e
00000280: c454 2d3e b3e5 243e 4949 07bc 587f 443d
00000290: c41f ab3e c276 d83c 2967 973c ec04 3cbf
000002a0: ae08 aabe e968 7a3e 23e6 2e3e 546f 1e3e
000002b0: 8e01 a33a 0c03 5a3d 5fed b83e f11a d93c
000002c0: 0019 5c3c 7757 4ebf 5c55 64be fd87 533e
000002d0: e101 273e 6eb7 133e ad86 6c3c b28a 753d
000002e0: 6d1f c63e cdad 153d 214b 263c 5c11 55bf
000002f0: ac4a f6bd 4c4b 313e 7940 1d3e 1072 003e
00000300: 7e02 fa3c 4f34 893d 90c2 ce3e fe03 483d
00000310: 6912 c13b ffb0 52bf e18a e3bc c5dc 0f3e
00000320: ba58 0f3e d0f6 cd3d a789 4d3d 6b68 963d
00000330: 5008 d53e 915f 8f3d 1255 693b d9ba 44bf
00000340: 3d34 493d e9ee e73d 475d f83d bf17 813d
00000350: 6c92 953d 0317 a23d 977b d83e 6299 d53d
00000360: 95ca 8f3b 39ff 2abf 7348 da3d ffa5 c03d
00000370: 7f1e df3d 811b f03c 86c3 c73d 1e63 ac3d
00000380: b44e d53e 1455 113e ab02 8e3b e7ff 08bf
00000390: 661c 163e 1f48 9c3d dc1e cd3d d4f5 b73b
000003a0: be1e fd3d 2902 b33d 8d1b cf3e 4a67 3d3e
000003b0: 0b4b c13b adb1 bdbe 71fd 2d3e df61 823d
000003c0: f602 c93d 4beb 30bb 98fc 193e 1b76 b63d
000003d0: 7649 c63e 046f 6e3e dc83 143c 47c8 36be
000003e0: 9091 343e c656 653d 9f24 d73d 1b73 eebb
000003f0: 70c8 343e f2e7 b63d 7640 b83e 2b65 903e

fc.bias f4 [36]
0.68180245 0.6354602 0.59168524 0.5537479 0.5207704 0.49197045 0.4661533 0.44640872
0.4297175 0.41773048 0.4094591 0.40077004 0.40070692 0.3993025 0.39808488 0.3948006
0.3964664 0.39613503 0.3882402 0.38516042 0.37804827 0.36574534 0.36265332 0.35917822
0.3550186 0.35863838 0.3637925 0.3699632 0.38352498 0.3971962 0.41848898 0.43296728
0.4607166 0.48501164 0.49934968 0.52748895
00000000: 9b8a 2e3f 85ad 223f af78 173f 6cc2 0d3f
00000010: 3551 053f 8de3 fb3e a5ab ee3e af8f e43e
00000020: ef03 dc3e c5e0 d53e a0a4 d13e bb31 cd3e
00000030: 7529 cd3e 6171 cc3e c8d1 cb3e 4e23 ca3e
00000040: a5fd ca3e 36d2 ca3e 6bc7 c63e bf33 c53e
00000050: 8b8f c13e f942 bb3e b2ad b93e 35e6 b73e
00000060: ffc4 b53e 739f b73e 0343 ba3e d16b bd3e
00000070: 635d c43e 4d5d cb3e 3044 d63e e3ad dd3e
00000080: 0ce3 eb3e 7253 f83e c3aa ff3e 8409 073f
