lstm.pt (torch, 8511 bytes, 10 tensors)

rnn.weight_ih_l0 f4 [40, 2]
000000 4b 30 2d 3f 2b a4 80 3f 0b 0f 5a 40 7a 5b 1a be
       0.67651814 1.00501 3.4071681 -0.15073958
000010 61 60 72 40 19 df 75 be db ec 23 40 69 ad cb bd
       3.7871325 -0.24010886 2.5613315 -0.09945185
000020 99 74 a1 3c fa 28 2e bf 99 58 f2 3e 4a a9 d3 3d
       0.019708918 -0.68031275 0.4733322 0.10335024
000030 4e 4b 41 3f 65 03 11 bf 2f 19 7b c0 3a 8a 7d be
       0.7550553 -0.56645805 -3.923412 -0.2475976
000040 1b 9f 41 40 4f c5 ae 3f 15 85 ea be 93 cd 0f bf
       3.025336 1.3653964 -0.4580466 -0.56173056
000050 70 e8 3e bf 96 f8 9f bf c3 69 54 40 10 58 bb 3d
       -0.7457342 -1.2497737 3.3189552 0.09147656
000060 b4 ea 25 40 2e fe 9d 3e 77 e8 01 40 1a 88 6d 3f
       2.5924501 0.30857986 2.0298135 0.927858
000070 34 b9 7b 3e d4 a5 0e 3f a7 17 bb 3d 8e 3b 00 3f
       0.24582368 0.55721784 0.09135371 0.50090873
000080 b6 2a 53 3f af b5 8f 3f b6 6e 37 c0 79 4d 15 bf
       0.82487047 1.122732 -2.8661323 -0.5832134
000090 9f a5 c4 3e a3 23 3a 40 d8 33 f2 bc e8 45 a9 3f
       0.3840761 2.908425 -0.029565737 1.3224459
0000a0 fa be 83 c0 ec 95 07 bc 8a 62 8c 3e eb d2 35 bf
       -4.1170626 -0.00827549 0.2741893 -0.7102496
0000b0 75 ea 4b 40 7e 7b 11 3e 14 82 db 3f 2b c8 b7 3f
       3.1861851 0.14207265 1.7149072 1.4357961
0000c0 1b 1c dd be 05 be f3 be 74 a2 cd 3e 13 e0 68 bf
       -0.43185505 -0.4760591 0.40163004 -0.9096691
0000d0 49 68 cf bf c0 5c 2b bf 78 2a 83 40 23 65 cf be
       -1.62037 -0.669384 4.098934 -0.4050685
0000e0 91 bf 2a bf de 63 8f 3f 1b f5 d4 be 6f b7 58 be
       -0.6669856 1.1202352 -0.4159325 -0.21163724
0000f0 c7 76 ff 3f 93 b9 02 3f 6f 93 b2 40 e9 02 98 bd
       1.9958123 0.51064414 5.5804973 -0.0742243
000100 3e b2 57 40 20 d9 1b 3e 83 94 aa 40 ec 61 73 3d
       3.370254 0.15219545 5.330629 0.059419557
000110 a9 0d 7d 3d 48 62 d0 3f bc 2e 97 40 5f 8d d7 be
       0.061780605 1.6279993 4.724455 -0.42100045
000120 21 22 4d 40 8b 2e f1 be 9e f8 c8 3f a7 68 83 3e
       3.205208 -0.47105822 1.5700872 0.2566578
000130 2b 0a 27 be 7a aa 0e bf 21 a8 3b bf aa e8 36 3e
       -0.16312473 -0.55728877 -0.7330342 0.17862192

rnn.weight_hh_l0 f4 [40, 10]
000000 bc 6d 09 c0 c9 b1 6e be 42 9d 52 be b0 f1 c5 3e
       -2.1473227 -0.23310007 -0.20567802 0.38660955
000010 9b 11 a4 bf f8 87 ca bf 94 80 35 c0 58 c4 33 bf
       -1.2817873 -1.5822744 -2.8359728 -0.7022147
000020 84 ce ae bf cc 5c c8 be 22 0d cf 3f a4 46 56 bf
       -1.3656774 -0.39133298 1.6175883 -0.8370154
000030 a4 4c 1d c0 cd c8 1b 40 47 fe de be c2 61 e5 bd
       -2.4578028 2.434131 -0.43553373 -0.112002864
000040 c3 73 19 c0 2c 12 e2 3f 8e 60 25 be 3b 1e 9f 3f
       -2.3976905 1.7661796 -0.16150114 1.2431101
000050 be 6e 74 3e 3c 2d fa bf 9e 33 a9 3f 4e a2 1c be
       0.2387037 -1.9545054 1.3218877 -0.1529629
000060 a1 99 44 40 03 74 34 c0 5d af 8b 3f a9 b4 ec bd
       3.0718768 -2.8195808 1.0912892 -0.11557896
000070 c7 10 bc 3f 92 51 a0 3f b8 b1 cf 3f f7 ca d6 3f
       1.469262 1.2524893 1.622611 1.678069
000080 68 45 28 bf 6d b5 1e bf 62 cd 48 3e 1c f6 15 40
       -0.65730906 -0.61995584 0.19609597 2.3431463
000090 61 07 bf 3f d5 e3 9d 3e ae 2a f5 3d 3b 69 a5 bf
       1.4924127 0.30837885 0.11971031 -1.2922739
0000a0 bd e1 a4 3e b3 ff 10 3f e8 f9 a1 bb a6 ab 3b bf
       0.32203475 0.56640166 -0.004943121 -0.7330879
0000b0 f8 bb 8d bf 70 01 4a 3e 4d 5d 43 3f 1c 82 79 3f
       -1.1072989 0.19727111 0.7631424 0.97464156
0000c0 8e c7 97 bc cb 49 13 c0 e4 70 9f 3f a8 9e 4b c0
       -0.018527772 -2.301379 1.2456326 -3.1815586
0000d0 a2 39 06 be f6 4c 46 bf 91 15 20 40 d0 a0 07 3d
       -0.13107923 -0.77461183 2.5013163 0.033112347
0000e0 da 00 7d 40 42 06 7f bf 0a 46 2d bf e9 fd 76 bf
       3.953177 -0.99618924 -0.67684996 -0.96481186
0000f0 12 95 e4 bf 59 ab aa be eb 4d b1 3f 23 46 d8 be
       -1.7857993 -0.33333853 1.3851904 -0.4224101
000100 e9 6a 07 3f 4d f5 ea bd 1d bb 04 3f 6c 24 c5 bf
       0.52897507 -0.11472569 0.5184801 -1.540174
000110 63 dd 87 3f b7 89 0a bf fd ae 0e bf c8 3e 71 bd
       1.0614437 -0.54116386 -0.5573576 -0.058897763
000120 09 09 a9 3f df 43 45 3f 1c 6c 26 40 a5 c2 9b bf
       1.3205882 0.7705669 2.6003485 -1.2168776
000130 95 d8 88 bf 6d 6d d0 bf bb df 58 3c 9b 1e 87 bf
       -1.0691096 -1.6283394 0.013236935 -1.0556215
000140 12 23 a0 bf 36 e9 be bf 0a 0e d7 3f 43 ad 19 40
       -1.2510703 -1.491492 1.6801159 2.4012
000150 e4 be 97 3f dd 4a 6b bf f5 be 08 c0 a7 5e ab 3f
       1.185513 -0.9191111 -2.136655 1.3388261
000160 57 ad f1 3d 92 71 22 be cb 96 ab 3f ef 01 4b 3f
       0.1180064 -0.15863636 1.3405393 0.79299825
000170 f4 aa ed bf 64 a7 f4 bd 6c b1 9c be 2b 7a 36 3e
       -1.8567796 -0.1194599 -0.30604112 0.17820041
000180 ed a9 0e c0 b7 c1 87 3e 76 d0 61 3f 60 46 01 c0
       -2.2291214 0.2651498 0.8820871 -2.0199203
000190 4d 77 3e bd 3b b6 30 40 3e d0 83 3f 7e ef 1d 40
       -0.046500493 2.7611225 1.0297925 2.4677424
0001a0 1f 2c 18 3f e5 d2 1a 40 d7 53 00 c0 1b 47 b6 3f
       0.59442323 2.419122 -2.0051172 1.424045
0001b0 a6 f4 b6 bf 7c 3f 5a 3e 72 93 c0 3f 62 e0 11 bf
       -1.4293411 0.2131328 1.5044997 -0.56983006
0001c0 dc 27 3b c0 a2 03 9b 3f 1d f3 f8 bf 42 64 94 3f
       -2.9243078 1.2110484 -1.9449192 1.1593096
0001d0 98 27 95 bf 43 0d ed be ca 96 1f 3f dd a8 54 bd
       -1.1652708 -0.4629918 0.6233946 -0.051918853
0001e0 b3 ef aa 3e f9 94 1a 3f bf 73 17 bf 6b ea 1d 3e
       0.33386 0.60383564 -0.5916099 0.15421455
0001f0 1e ca 31 bd 9f 6c ed bd 4f 4c 94 bf d9 ba 35 40
       -0.043405645 -0.115929835 -1.1585788 2.8395293
000200 ac bf bd bf 88 84 26 3f 5b 0f 91 40 a1 8b 0c 40
       -1.4824119 0.65045977 4.5331244 2.1960223
000210 02 95 cf bf 96 85 2b 3f 61 27 7c bf 5a ea e2 3f
       -1.6217349 0.6700071 -0.9849759 1.7727768
000220 97 48 3e bf 6a 7b 6a bd e3 7c c2 bd e9 88 d0 bf
       -0.74329513 -0.057246603 -0.094964765 -1.6291782
000230 1b bf 87 bd d3 67 ed bf 16 53 c4 3f a7 f1 d3 3f
       -0.06628247 -1.854731 1.5337856 1.6558121
000240 12 92 cf bf 13 9f 72 be 1c 44 41 be 69 23 85 3f
       -1.6216452 -0.23693494 -0.18873638 1.0401431
000250 ae 78 55 40 66 c6 5e 3e 69 f6 e7 3f cf 19 ca bf
       3.3354907 0.2175537 1.8122073 -1.5789126
000260 d4 3f 74 bf d5 bd fe 3f 15 d1 8b 3f 26 4e 22 3e
       -0.95409894 1.9901682 1.0923182 0.15850124
000270 35 6e 9d 3f b9 21 b5 3f c3 be 58 40 8d 49 f0 3d
       1.2299258 1.4150916 3.3866432 0.11732779
000280 43 45 c2 3f e9 75 a4 3f 38 ea 00 bf 22 84 10 c0
       1.5177387 1.2848483 -0.5035739 -2.2580647
000290 19 61 81 bf 67 ea 25 3e 70 42 13 3f a9 5c b4 bf
       -1.0107757 0.16202699 0.5752325 -1.4090778
0002a0 0e 93 ba 3f a1 df 8d c0 e1 a2 73 3e 1d 32 26 bf
       1.4576128 -4.4335485 0.23792602 -0.64920217
0002b0 7e c6 2f bf 05 8e bb be 4e e1 fa 3f 22 c2 cb bd
       -0.6866225 -0.3663179 1.9600008 -0.09949137
0002c0 0a c4 31 3d 53 de 93 3e 00 bf 2e 3f ad e8 b7 3f
       0.043399848 0.28880557 0.6826019 1.4367882
0002d0 c2 42 6b c0 61 7d bb bf ff 70 65 3f 34 a6 8a 3f
       -3.6759496 -1.4647638 0.89625543 1.0831971
0002e0 c4 2d b0 be 95 ab 06 c0 1e 44 6b c0 c0 70 0d 41
       -0.34409916 -2.1042225 -3.6760325 8.840027
0002f0 0f 44 5a 3e 28 5b 89 3f 73 99 5d c0 87 95 f3 3e
       0.21315025 1.0730944 -3.4624908 0.47575018
000300 eb 34 11 40 dd bd b8 3f 46 90 57 bf 96 a9 03 be
       2.2688549 1.4432942 -0.8420452 -0.1285766
000310 e4 34 e6 bf 9c 08 06 40 c8 b3 ab bf f1 b9 b2 bf
       -1.7984891 2.0942755 -1.341424 -1.3962995
000320 13 28 b0 3d c9 82 4a 3d d9 5f 84 be cf dd 0b be
       0.086013936 0.049441133 -0.25854376 -0.13658832
000330 30 07 80 3d 3c 57 9e 3e a0 f0 ad bd 14 20 35 3e
       0.06251371 0.3092593 -0.08493161 0.17688018
000340 90 95 13 3e 26 d1 99 3e af e2 b8 3b 6e 8f 0a be
       0.14412522 0.3004238 0.005642257 -0.13531277
000350 5c dc 04 bf 29 a6 19 c0 eb fd be 3e f8 34 81 3f
       -0.5189874 -2.4007666 0.373031 1.009429
000360 8f c3 b8 3f 9c e5 80 3f 47 41 30 c0 e7 06 32 3f
       1.443468 1.0070071 -2.7539842 0.6954178
000370 63 38 48 c0 3f 3c 3b ba 5a d6 73 bf 5f 76 c0 3f
       -3.1284416 -0.0007142461 -0.9524895 1.5036124
000380 c6 16 63 be 63 ec f4 3c a8 ea fb 3f 9f 15 0a 40
       -0.22176656 0.029897874 1.9680986 2.1575696
000390 cc 04 26 bf b2 60 84 be 53 a3 45 bf f4 fb 32 bf
       -0.6485107 -0.25855023 -0.7720234 -0.699157
0003a0 0e b6 e1 3e 57 35 1d 3f 51 a0 c6 3f 76 ea 24 bd
       0.4408421 0.61409515 1.5517675 -0.040262662
0003b0 be 3c b7 bf 2c f0 87 be 91 14 21 bf cf e9 08 bf
       -1.4315412 -0.26550424 -0.62922007 -0.53481764
0003c0 6c bf cc be a7 28 92 bf 7e 54 ba bd 47 f1 95 c0
       -0.39989793 -1.1418656 -0.09098147 -4.685703
0003d0 40 fa 1a 3f f3 54 d7 be fe 9d a4 3f 4a df 8d 3f
       0.605381 -0.42057 1.2860715 1.1083767
0003e0 29 df cd 3f 65 e6 5e 40 4d a6 c9 3f bb 2b 5b 3f
       1.6083728 3.4828122 1.5753876 0.856136
0003f0 21 42 2f bf 0d 64 42 bf 20 99 48 bf 12 a4 63 be
       -0.6846028 -0.75933915 -0.7835865 -0.22230557

rnn.bias_ih_l0 f4 [40]
000000 a3 e5 97 3e 3e 2a 24 bf 7a b6 8c bf b7 ad a8 bf
       0.29667386 -0.64126956 -1.0993187 -1.3178014
000010 73 af 95 be f5 e8 b6 be f9 65 73 bf 6c 0e d1 3f
       -0.2923542 -0.35724607 -0.9507747 1.6332526
000020 10 0f 29 40 5a ca c4 3d 7f 8b 40 3f ea 61 6f bf
       2.6415443 0.09608908 0.75212854 -0.9350878
000030 f3 3a bb bf 4a b7 ff be d0 f6 8d 3f 20 70 b8 3e
       -1.4627365 -0.49944526 1.1090946 0.36023045
000040 81 70 aa bf 38 36 4f 3f 1b 1a 05 3f 73 82 b5 3e
       -1.3315583 0.80942106 0.5199296 0.35451087
000050 d2 ed 03 40 3d 9c 15 3f 2b f1 aa bf 21 5d 85 3f
       2.0613904 0.58441526 -1.3354849 1.0419046
000060 dd c6 14 bf 63 6a 2a 3f 32 72 58 be d4 86 a5 bf
       -0.5811594 0.66568583 -0.21137312 -1.2931771
000070 f8 df 1b bf ec 05 d7 bc 54 a9 84 3f ce 75 1e c0
       -0.60888624 -0.026247941 1.0364175 -2.4759402
000080 b1 12 8d bf eb 0c ca bf a6 05 e7 3e bf 44 7d bf
       -1.1021329 -1.5785192 0.45121497 -0.98933023
000090 e8 1e a0 3f d3 10 19 3f 0d c1 07 3f cc 40 45 3f
       1.2509432 0.59791297 0.5302895 0.77052

rnn.bias_hh_l0 f4 [40]
000000 db f1 34 3f e7 48 47 bf 0d 05 96 bf 5e b4 84 bf
       0.7068154 -0.77845615 -1.1720291 -1.0367544
000010 8f 8f 83 be d1 67 2e bf c2 29 00 bf 4c cd d3 3f
       -0.25695464 -0.6812716 -0.5006372 1.6547027
000020 7c 33 3b 40 45 8d 10 3f ef 73 17 3f f0 3b 67 bf
       2.9250174 0.5646556 0.59161276 -0.9032583
000030 de 4c b9 bf 9c 59 2d be 7a 97 16 3f a9 96 29 3e
       -1.4476583 -0.16928715 0.58824885 0.16561379
000040 13 2e bc bf 90 35 7c 3f 1c 54 0f 3f c7 dd 0f 3f
       -1.4701561 0.9851923 0.55987716 0.5619778
000050 7f dc 0b 40 5b fc e6 3d 62 ad bd bf 70 b3 b5 3f
       2.185333 0.11278602 -1.4818537 1.4195385
000060 83 d0 a3 be 04 9e f3 3e dc 15 11 be 55 ec 75 bf
       -0.3199502 0.47581494 -0.14168495 -0.9606374
000070 0a a3 56 bf a1 d3 a4 be c8 14 32 3f de 9f 0a c0
       -0.8384253 -0.3219271 0.6956296 -2.1660075
000080 69 61 60 bf 8b c8 db bf 7b ab ea bd 64 01 5a bf
       -0.87648636 -1.7170576 -0.114584886 -0.8515837
000090 0e a5 58 3f 88 60 83 3f 2a b8 66 3f 46 30 d2 3e
       0.84626853 1.0263834 0.9012476 0.41052455

rnn.weight_ih_l1 f4 [40, 10]
000000 16 8d 3d bf a9 7b c1 3e 86 fb d8 3e 84 1f 7a bf
       -0.74043405 0.37789658 0.42379397 -0.9770434
000010 3b 56 85 3f b4 9c a8 bf d2 e8 ff 3e c1 85 6e c0
       1.041694 -1.3172822 0.49982315 -3.7269137
000020 f5 57 b1 be 2e 88 63 3f c8 d1 f8 bf 46 1b 08 3f
       -0.34637418 0.8887967 -1.943902 0.53166616
000030 20 28 68 40 15 da d9 be 40 1d 5d c0 65 ef a3 bf
       3.627449 -0.42549196 -3.4549103 -1.2807432
000040 29 c5 63 c0 ba 6e 44 3f 4e e6 1d 40 08 7f 55 bf
       -3.5589087 0.76731455 2.4671817 -0.8339696
000050 03 ec df bf 6d 4b 7f 3e 79 78 2e 40 89 4f 58 3f
       -1.74939 0.24931116 2.726103 0.8449636
000060 93 19 72 bf 32 85 8f be e6 fa 09 c0 d2 3b de 3f
       -0.94570273 -0.28031307 -2.1559386 1.7362006
000070 6d f0 23 40 c4 05 6e 3f 20 f8 4e c0 a5 9a da bf
       2.5615494 0.9297755 -3.2338943 -1.7078444
000080 9c 5d 9d 3f b0 bc 3f 3f f6 95 b0 3f 6f 89 a0 be
       1.2294192 0.7489729 1.3795764 -0.31354854
000090 b7 eb b3 3e b1 21 42 3f 9f 37 e4 3e ca 7c 44 3e
       0.35140774 0.7583266 0.44573686 0.19188228
0000a0 33 10 d7 3f 46 a3 2c bf 65 22 86 be 1c 3e 84 3f
       1.6801819 -0.67436635 -0.26198116 1.0331454
0000b0 6e 81 d7 3f 44 d0 18 3f fc 85 fc bf b6 aa 8e bd
       1.6836374 0.5969279 -1.9728389 -0.06966154
0000c0 ac f1 5b 3f 4e 83 3f c0 7a 47 9d bf 54 f4 03 40
       0.85915637 -2.9923892 -1.2287438 2.0617876
0000d0 73 7a 7b 3e 9b 7c 8b be 1d b5 36 40 02 00 2a 40
       0.2455843 -0.27243504 2.8548043 2.6562505
0000e0 98 3e 0f c0 a5 9e 1e 3f e6 89 c7 bd 42 93 17 40
       -2.2381954 0.6196082 -0.09743099 2.368363
0000f0 5e 78 4d 40 1c a0 1b 40 e4 a8 20 bd dd 35 90 bf
       3.2104716 2.4316473 -0.039223567 -1.1266438
000100 8f ef 00 c0 e8 71 a2 3e fd 65 12 c0 98 89 3b c0
       -2.0146215 0.3172753 -2.2874749 -2.930273
000110 83 2b f9 3e 04 8a f4 3f 13 06 9d 3f 98 0c 86 3f
       0.4866601 1.9104619 1.2267479 1.0472593
000120 11 33 c8 3e 16 0e db be 4a 6c 8f bf 73 32 0a c0
       0.3910146 -0.42784184 -1.1204922 -2.1593292
000130 66 75 56 c0 c3 cd e1 bf 3e 18 bd bf f9 e3 23 3e
       -3.3509154 -1.7640918 -1.4773023 0.16004933
000140 c2 76 46 c0 4c e1 24 bf a6 bd dc 40 7d 3c 80 bf
       -3.1009984 -0.64406276 6.8981504 -1.001846
000150 6c 8a 04 3e 13 1b f8 be c8 e8 22 3f 98 be d5 3f
       0.12943429 -0.48458156 0.63636446 1.669879
000160 cc 42 90 3f 17 8b 52 c0 2a 29 be 3f 70 e2 52 be
       1.1270385 -3.2897394 1.4856312 -0.20594192
000170 5d 9d 51 3f 49 0d 43 3f ab af 42 bf da 68 c9 be
       0.8188074 0.76192147 -0.760493 -0.39337808
000180 05 f2 58 bf 22 31 6a bf 82 14 43 bf 5b ea a0 bf
       -0.8474429 -0.9148122 -0.7620317 -1.257152
000190 98 37 10 40 95 72 b6 3d 55 f3 bc bf 5e b5 bf 3d
       2.2533932 0.089085735 -1.4761759 0.09360765
0001a0 fb aa 70 3f 2b 47 64 bf 04 bf cb 3d f2 5c bf c0
       0.94010895 -0.89171094 0.09948543 -5.980096
0001b0 05 0a 37 bd 27 e4 42 c0 87 db 4e 3f 0f c6 fe bf
       -0.04468729 -3.0451753 0.8080372 -1.9904193
0001c0 e0 08 60 c0 5c 47 0e c0 05 33 28 40 7c 7b 96 bf
       -3.5005417 -2.2231054 2.628114 -1.1756434
0001d0 2c b1 d8 bf e5 56 60 3e ab b5 ad 40 bc c7 38 3f
       -1.6929069 0.21908148 5.4284263 0.7217977
0001e0 31 c3 1e c0 a6 2d cd 3e 0e 61 71 40 72 46 70 3f
       -2.4806635 0.4007389 3.7715487 0.9385749
0001f0 28 dd 25 bb 10 d2 86 3e 6f ec 99 bf 98 fd c8 be
       -0.0025308821 0.2633214 -1.2025279 -0.39255977
000200 ea 2a e3 3f 58 bb e8 bf 15 e7 33 3f 61 b5 e4 bf
       1.7747471 -1.8182173 0.7027448 -1.7867852
000210 45 d8 b5 3e 80 c8 9a 3f 47 a7 fc 3e 17 51 36 3f
       0.35516563 1.2092438 0.49346372 0.71217483
000220 db 45 0c 3f b9 a9 f9 bc c6 51 ca 3f c4 56 17 c0
       0.5479409 -0.030476438 1.5806205 -2.3646708
000230 b0 cb e8 be bf af 89 bd 04 6a ee be 99 02 9c 3f
       -0.454679 -0.06722974 -0.46565259 1.2188293
000240 2a bc 3b 3f ef a3 d8 3d 5e 0d 31 c0 a0 36 21 3f
       0.7333399 0.10578143 -2.7664409 0.62973976
000250 95 39 0a 3f 65 cf e8 bf 54 95 31 3f 27 5b 23 3f
       0.53994113 -1.8188292 0.6936848 0.6381096
000260 d0 f8 8a be f9 c7 02 40 c6 57 89 3c f3 e7 d0 3f
       -0.27142954 2.0434554 0.016765486 1.6320785
000270 ba 8a 03 c0 34 c0 3c c0 a9 d2 98 bf ad 27 d7 bf
       -2.0553422 -2.9492311 -1.1939288 -1.6808983
000280 e2 bc 89 40 02 ec 47 bc 1e fe e4 c0 93 a4 1b c0
       4.304307 -0.012202265 -7.15602 -2.4319198
000290 6e c9 e5 3f 7a e4 b7 3f 8f 58 82 40 de f3 b8 40
       1.7952096 1.43666 4.0733104 5.779769
0002a0 37 f6 d8 40 81 7f 31 3f 99 24 8a bf 9f a3 ff be
       6.7800555 0.6933518 -1.0792419 -0.4992952
0002b0 62 b0 1e 3e 02 f6 20 40 b4 95 23 3e a9 a8 c1 bb
       0.15496972 2.5150151 0.15975076 -0.0059099984
0002c0 d8 2c a5 be fe 4d 1c 40 7c 59 cc bb ec 7f 51 bf
       -0.32260776 2.4422603 -0.0062362533 -0.8183582
0002d0 a4 8b 6a 3e a3 24 06 be 89 3c 8e bf 36 ef ac bb
       0.22904831 -0.13099913 -1.1112224 -0.0052775396
0002e0 b6 06 07 bf 92 74 46 c0 25 80 44 c0 63 10 06 40
       -0.52744615 -3.100865 -3.0703213 2.0947502
0002f0 cc c5 cb 3f 14 d0 2a 3e 16 17 a9 3e d5 d8 b7 bd
       1.5919738 0.16680938 0.33025426 -0.08976904
000300 54 72 a4 3f fa fa 27 40 25 64 e9 3e 45 26 2b 3f
       1.284739 2.6246934 0.45584217 0.6685527
000310 af 58 63 bf 29 08 43 3f 28 2d aa be cd 0c 3c be
       -0.88807195 0.76184326 -0.33237576 -0.18364258
000320 6c 8b 06 be e6 c6 7d bf 39 9e 36 be be 9f 5b 3f
       -0.13139123 -0.9913162 -0.17833795 0.8579062
000330 8a c5 62 3f 6a 37 10 c0 4c 16 ad be 65 48 00 c0
       0.8858267 -2.2533822 -0.33806074 -2.0044186
000340 f0 5f cd 3f 7f 10 1a bf fc 1a d2 3f 98 f4 30 3e
       1.6044903 -0.6018142 1.6414485 0.17280805
000350 24 d6 c6 be ef a2 1b bf 6c 60 06 bf 42 32 1c be
       -0.3883525 -0.6079549 -0.5249088 -0.15253547
000360 33 ec 06 c0 e1 5f 2d c0 15 39 34 40 12 1f b9 be
       -2.1081665 -2.708977 2.815984 -0.36156517
000370 8c a6 13 3e fa c1 1d 3f bd 08 17 be 85 92 03 bf
       0.14419001 0.6162411 -0.14749427 -0.51395446
000380 2b 4d 06 c0 43 70 9a 3f 23 3c 04 bf 93 fd 3e 40
       -2.09846 1.206551 -0.5165426 2.984227
000390 8b 44 13 40 e8 29 58 bf f6 47 1a 3f 83 ab 2b c0
       2.3010585 -0.84438944 0.60266054 -2.6823432
0003a0 6e c6 96 3f 4e 5c 0f bf a8 68 8c 3f 90 f9 8d bf
       1.1779306 -0.5600022 1.0969439 -1.1091785
0003b0 da 00 53 3d bb 79 28 c0 26 0b d9 3f 63 69 b6 bf
       0.051514484 -2.6324298 1.6956527 -1.4250911
0003c0 db d7 87 bf 5b f8 bb bf b7 52 3e bf 81 f1 aa 3e
       -1.0612749 -1.4685167 -0.7434496 0.33387378
0003d0 83 38 9f 3f ba a3 9c bf af 2a df 3e 0e b1 1c bf
       1.2439121 -1.2237465 0.43587252 -0.61207664
0003e0 75 f2 2c 40 85 21 d6 3f 15 64 9b be c0 0a 12 be
       2.7022984 1.6728979 -0.30349794 -0.14261913
0003f0 23 c3 e6 3f 6e c5 83 3e 88 83 cc 3e fe bc cc 3f
       1.8028301 0.25736564 0.399441 1.5995176

rnn.weight_hh_l1 f4 [40, 10]
000000 4d e7 13 c0 39 2b 68 40 7a 36 63 c0 ed b4 12 bf
       -2.3109925 3.627638 -3.5502 -0.5730732
000010 ba b3 42 bf df 95 e5 3f 5f c3 0d 40 27 d1 f7 3f
       -0.7605549 1.7936362 2.2150495 1.9360703
000020 15 72 9b bf 8c 1a 14 3f 87 0a 49 40 d1 7b 38 c0
       -1.214419 0.5785301 3.1412675 -2.8825572
000030 a2 78 a5 c0 5e 62 6b 40 0c 9b 49 c0 67 c9 d4 3f
       -5.1709757 3.6778789 -3.1500883 1.6623963
000040 6e d0 0e c0 c8 6d 04 3f 3c 20 46 40 6b a3 7f 40
       -2.2314715 0.5173001 3.0957174 3.9943492
000050 b8 a8 7b be 51 b4 d4 3f cb ab 65 bf 49 de 94 3f
       -0.2457608 1.6617528 -0.8971526 1.1630336
000060 95 cc e2 bf 14 9f 43 40 f7 35 92 c0 de 7c 23 bf
       -1.7718683 3.0565844 -4.5690875 -0.6386241
000070 fe f2 31 40 9c 56 f6 be f2 ad 12 c0 29 6f 15 40
       2.780456 -0.48112953 -2.2918668 2.3349097
000080 3a 52 63 3f 2e 4e 6a bf f6 89 c7 3e 32 35 fd be
       0.8879734 -0.9152554 0.38972443 -0.49454647
000090 66 a3 13 3f 20 84 5a bd 9c d5 a0 c0 9a f7 7a be
       0.576712 -0.05334866 -5.0260754 -0.24508515
0000a0 5c e4 41 3f f5 8b a1 be 48 8f 8e bf ea b5 88 3f
       0.75739074 -0.3155209 -1.1137476 1.0680516
0000b0 93 9e 0d c0 55 cd a1 bf 8e e0 11 40 6a 09 e6 be
       -2.2128036 -1.2640787 2.2793307 -0.44929057
0000c0 0e 6d fb 3e 7e 32 a1 3f c0 d7 ea be 61 57 0d c0
       0.4910664 1.2593534 -0.4586773 -2.2084582
0000d0 c5 5f 4b 3f b1 d0 21 bf 7a 5e 86 3f 8a 00 ec bf
       0.7944301 -0.6320906 1.0497582 -1.8437665
0000e0 6e 73 f6 3f a0 01 02 3f 38 0a 94 bf e5 0b bb bf
       1.9253976 0.5078373 -1.1565619 -1.4613005
0000f0 8d c9 02 40 d2 60 24 c0 fd ea 93 c0 5b d6 c0 3d
       2.0435517 -2.5684094 -4.622435 0.09415885
000100 50 08 a7 40 b4 b1 1f c1 53 13 6d 40 e0 54 d5 be
       5.2197647 -9.980885 3.7043045 -0.41666317
000110 e4 cf 72 40 57 0d 0b 40 33 7e 1b 3f 27 5c fc bf
       3.7939386 2.1726892 0.6073944 -1.9715623
000120 d7 ef 4c bf 35 96 b3 3c 58 a1 90 be 32 b3 85 bf
       -0.80053467 0.02192221 -0.28248096 -1.0445311
000130 31 a4 bc 3d 81 ad 33 3f 6b 3d d2 3e 8e c8 b9 bf
       0.092110045 0.7018662 0.41062483 -1.451433
000140 f1 ba b9 3e ef de 8c 3d aa 94 00 40 52 8c 84 3e
       0.36275437 0.06878459 2.0090737 0.25888306
000150 45 96 14 bf 97 9e a4 40 4b 70 f4 be 7c e6 54 bf
       -0.58041793 5.144359 -0.47741923 -0.8316419
000160 48 1c 57 40 96 dc 03 c0 e6 be 82 3c 45 e7 5f be
       3.3611012 -2.0603385 0.015960168 -0.21865566
000170 cd 8e 81 bf 6e 15 36 3f a2 f4 27 bf e3 48 17 bf
       -1.0121704 0.7112645 -0.65607655 -0.5909559
000180 fb 61 46 3f 8f 04 a6 be 6b 47 a2 3e e6 1e d8 3b
       0.77493256 -0.32425353 0.31695113 0.0065954803
000190 44 99 55 bf c7 df 3e 40 78 9c 8f 3f 43 f6 fa 3e
       -0.8343699 2.9824083 1.1219625 0.49016008
0001a0 49 85 b3 3f c5 97 ac c0 f4 86 38 40 7b 5b 8e bf
       1.402505 -5.3935266 2.883237 -1.1121668
0001b0 16 4b 79 3f 02 00 88 3f 96 bb 3e 3f 10 aa 0c 40
       0.973802 1.0625002 0.74504983 2.1978798
0001c0 3b 3d 0c c0 b1 d2 0e be 97 ba b2 bf 5a cf 75 bf
       -2.1912372 -0.1394756 -1.3963193 -0.9601952
0001d0 12 d9 06 3f 0b 17 80 3f c7 e3 3b 3f 96 14 3a c0
       0.52674973 1.0007032 0.73394436 -2.9075065
0001e0 c2 5f 27 40 62 7f bf 3f 21 25 a4 bf 41 fc d3 3d
       2.6152196 1.4960749 -1.2823831 0.10350848
0001f0 c2 3b 98 c0 c8 a1 b6 bf 23 15 dd be 46 75 4e bf
       -4.7572947 -1.4268122 -0.4318019 -0.80647695
000200 c9 38 09 40 db bc 27 3d 8f 3d 80 be 58 25 89 40
       2.144091 0.04095159 -0.25046965 4.2858086
000210 ba 60 89 3f ed ed 54 be 2d f3 a6 3e 35 d7 57 bf
       1.0732644 -0.20793886 0.32607403 -0.84312755
000220 81 bd 36 40 f0 fb a9 be fd 0f 54 c0 30 ea 42 c0
       2.8553164 -0.33200026 -3.3134758 -3.0455437
000230 85 a7 a7 be ed db a0 bf 83 62 a9 bf ce 7d 8b 3f
       -0.32744995 -1.2567116 -1.3233188 1.0897768
000240 93 fb c1 bf c6 23 84 c0 60 23 d9 3f 2e 7b b9 bd
       -1.5154899 -4.129367 1.696392 -0.09056698
000250 70 b1 ba 3f 2a 09 70 3f 68 2c 71 bf 0c d9 71 3f
       1.45854 0.93763983 -0.94208384 0.9447181
000260 cf 5a 47 c0 21 ef 8b bf c9 6e a8 3e f6 6f 96 3f
       -3.1149175 -1.0932351 0.32897022 1.1752918
000270 08 4d 84 3f 6f c6 b7 bf 42 c5 83 bf a4 49 8a bf
       1.0336008 -1.4357432 -1.0294573 -1.0803723
000280 c4 b7 cd bd 2d e2 1d 40 83 54 87 40 e1 d8 3c bf
       -0.10044816 2.4669297 4.2290664 -0.7376843
000290 78 a1 b9 c0 58 04 a4 40 c3 47 03 c0 84 c1 81 3f
       -5.8009605 5.1255302 -2.051255 1.0137181
0002a0 6e 4c 19 40 f1 18 23 3f 72 2c a7 bf d5 cb c4 bf
       2.39529 0.6370993 -1.3060439 -1.5374705
0002b0 1e f6 a5 bf 3b 77 85 3f e5 a6 87 3e e4 d4 ae bf
       -1.2965734 1.0427011 0.26494518 -1.3658719
0002c0 ee cc bb 3e db ab 88 bf 89 63 31 be 2c 6d 35 bf
       0.36679786 -1.0677446 -0.17323126 -0.7086971
0002d0 b6 f6 64 40 6c 4f 10 c0 aa 46 71 3f da 66 b6 3f
       3.577558 -2.2548475 0.9424845 1.4250138
0002e0 43 42 0c c0 57 d7 37 40 5a ba 89 bf 3c 17 1c bf
       -2.1915443 2.8725183 -1.0759995 -0.6097295
0002f0 34 3a dc bf da c9 d9 bf f0 07 0f 3e e1 bc ad bf
       -1.7205262 -1.7014725 0.13967872 -1.3573266
000300 2c 20 77 3e 8c ec 9f 3f f3 3d 3d 3f 7b 3e 7a bf
       0.24133366 1.2494063 0.7392265 -0.9775159
000310 c7 93 f3 3f 48 23 da bf b6 ce 3f bf aa 16 05 c0
       1.9029473 -1.7042017 -0.7492479 -2.0795083
000320 5f ad c4 bf 63 fc 4e 40 34 21 f4 be 1f e6 a4 3f
       -1.5365409 3.2341545 -0.47681582 1.2882727
000330 23 1b c6 be cb 98 2d c0 0d 37 f8 3f 4a a1 8c 3e
       -0.3869258 -2.7124507 1.93918 0.27466804
000340 1e 54 a6 3d f2 2a 59 3f 17 cd 43 c0 a1 05 6e bf
       0.08121513 0.84831154 -3.0593927 -0.9297734
000350 fd d9 71 40 b3 2d 25 bd 2d 98 cf 3f 58 2c 60 40
       3.77893 -0.040326785 1.6218315 3.5027065
000360 96 6d 2b c0 ad 39 2c 3f 4a 37 30 c0 c3 e9 d0 be
       -2.6785636 0.67275506 -2.7533746 -0.40803346
000370 53 c3 39 40 30 0f e6 be b1 70 ce 3f b9 d6 98 3f
       2.9025466 -0.44933462 1.6128141 1.1940528
000380 52 16 08 40 7b 6a af bf 95 fc ec bf 1f 8d 6e 3b
       2.1263623 -1.370437 -1.8514582 0.0036400033
000390 29 8e bf bf 64 15 f3 bf b2 6a e0 bd c7 84 b6 3f
       -1.4965259 -1.8990903 -0.109578505 1.425927
0003a0 c5 86 8c 3f 8c 15 9c 3f dd ea 81 be 21 f5 b1 be
       1.0978628 1.2194076 -0.253745 -0.3475733
0003b0 0d 0c b3 3f 64 00 0d bf 85 b3 1b 3e f1 3c af 3d
       1.3988053 -0.5507872 0.152052 0.085565455
0003c0 01 1d de bf a1 28 a8 be aa 46 5c 3f 18 41 cf 3f
       -1.7352601 -0.32843497 0.86045325 1.619174
0003d0 50 c1 e1 be 7f 3b bc 3d 26 88 b4 be 92 8b 18 bf
       -0.44092798 0.091910355 -0.35260123 -0.5958797
0003e0 ca 37 ac 3f e3 2a 0a 3e c7 f2 90 3e 09 d0 26 c0
       1.3454525 0.13492922 0.28310224 -2.6064475
0003f0 71 8e 1a 40 d1 2b 0d 3f 10 28 3d c0 7e a6 55 3f
       2.414944 0.55144984 -2.9555702 0.8345717

rnn.bias_ih_l1 f4 [40]
000000 21 82 44 bf f7 c0 9e bf fa 32 39 3e 03 4e 11 bf
       -0.7676106 -1.2402638 0.18085852 -0.5675966
000010 e2 e5 a5 3e 92 80 54 bf 80 9c b6 3e 05 0a 83 3f
       0.3240195 -0.8300868 0.35666275 1.0237433
000020 68 e2 84 3e 93 27 3f 40 b9 b8 37 3f c8 fd 7b be
       0.25953984 2.9867904 0.7176624 -0.24608529
000030 b8 e1 e2 3d 37 5d 9f 3e 80 5e 58 3f f5 d6 ac 3f
       0.11078209 0.31125805 0.84519196 1.35031
000040 16 4a 7a bf 95 4a 53 3f 90 25 ae 3e 61 c1 a1 3f
       -0.97769296 0.8253568 0.34013033 1.263714
000050 52 6e 57 be 3e 13 77 bf 99 30 57 be cc 25 a5 3e
       -0.21038178 -0.96513736 -0.21014632 0.322554
000060 f0 24 13 bd e7 19 8b 3e 99 43 e2 3e 27 73 bf bc
       -0.0359239 0.271682 0.44192198 -0.023370339
000070 bc 93 bc be c5 70 ee be 66 ac 9c bf 41 1e 6a bf
       -0.36831462 -0.4657041 -1.2240112 -0.91452414
000080 40 12 64 bf 83 5b 08 bf 0b 6f 5f bf 59 8a 10 bf
       -0.8909035 -0.53264636 -0.87278813 -0.564611
000090 48 e7 90 be 82 44 bd 3e b6 9c 20 bf 26 e2 b2 be
       -0.28301454 0.3696633 -0.6273912 -0.34938163

rnn.bias_hh_l1 f4 [40]
000000 85 8d 2f bf b9 f2 58 bf 10 98 96 3d 98 b9 de be
       -0.68575317 -0.84745365 0.07353222 -0.43500972
000010 e5 8e 65 be ec 5a b2 be d6 b3 57 3f f9 fb d4 3e
       -0.22417791 -0.34834993 0.8425878 0.4159849
000020 04 b5 fe 3e e1 5d 26 40 32 e6 3e 3f 99 3f 20 bf
       0.4974748 2.59948 0.7457 -0.6259704
000030 6d 82 bf 3e 97 cb 81 3e 5a d2 00 3f 36 69 bc 3f
       0.37404194 0.2535064 0.5032097 1.4719608
000040 d5 47 b2 bf bd 2e 60 3f 75 33 3e 3e dd 3d d8 3f
       -1.3928171 0.87571317 0.18574317 1.6893879
000050 0f 30 ba 3d 9c 1b 02 bf 56 86 68 be 99 76 b6 bd
       0.09091198 -0.5082338 -0.22707495 -0.089093395
000060 e5 fe ac be d6 15 59 3c d1 e4 ab 3d 65 cb dc be
       -0.3378822 0.013249835 0.08393253 -0.43123928
000070 b9 6d 39 be 47 3b 35 bf bd 16 6f bf 59 f5 7c bf
       -0.18108262 -0.70793575 -0.9339407 -0.9881187
000080 a8 8c 51 bf f9 a0 3e bf 6c e5 6a bf f9 f2 a0 be
       -0.8185525 -0.74464375 -0.9175632 -0.31435373
000090 62 39 d7 bd 96 1c 8f 3e 7c 8d 69 bf 31 7a 71 be
       -0.10508992 0.27951497 -0.91231513 -0.23581769

fc.weight f4 [12, 10]
000000 2f a9 07 bf 4b 7c b1 be 3e 6f 81 be 46 03 14 3d
       -0.5299253 -0.3466514 -0.25280184 0.036135934
000010 50 e9 74 3f 64 28 1d 3e 3c 9d 40 bd a9 76 70 be
       0.95668507 0.15347439 -0.04702495 -0.23482765
000020 a2 9c 39 3d 36 56 90 3f 5d 4f 14 bf 69 94 e3 bc
       0.045315392 1.127631 -0.579336 -0.027780728
000030 62 7c 41 be dc ef 21 3d 5f 68 7f 3f 6f 39 9a 3e
       -0.18895105 0.03953539 0.9976863 0.30121943
000040 22 4e e5 bd 27 0b 87 be 49 0f ae 3d 59 96 7c 3f
       -0.11196543 -0.26375696 0.08499009 0.9866691
000050 d2 89 16 bf 37 5c 5c 3e bd cb 13 be b2 98 2e 3d
       -0.5880405 0.21519552 -0.14433189 0.04262609
000060 11 3a 7b 3f cf e2 d7 3e f4 bf 43 be f7 67 96 be
       0.9813548 0.4216523 -0.19116193 -0.29376194
000070 44 16 c9 3d 92 0f 55 3f ed 7e 0d bf c7 64 cd 3e
       0.098187 0.83226883 -0.552718 0.4011595
000080 31 49 0a be a7 ad 3e 3d 23 72 6e 3f ec 41 05 3f
       -0.13504483 0.046552327 0.9314291 0.52053714
000090 95 58 87 be ed c1 a6 be 74 2f bb 3d 42 43 2c 3f
       -0.2643477 -0.3256983 0.0913991 0.6729013
0000a0 d0 07 f9 be ab 8a 0b 3f dd 95 23 be 79 f1 53 3d
       -0.48638773 0.54508466 -0.15975137 0.05174396
0000b0 a0 b2 5b 3f 56 eb 18 3f ba 6e a6 be 7c 07 b7 be
       0.85819435 0.59734094 -0.32506353 -0.35747898
0000c0 3d de 85 3d 35 7a 03 3f 99 0f cc be 63 ac 1e 3f
       0.06536529 0.5135835 -0.3985565 0.6198179
0000d0 d1 e8 4b be 06 b7 6d 3d ce 94 44 3f 8c e1 25 3f
       -0.19913031 0.058035873 0.7678956 0.6479728
0000e0 5d 86 c1 be be 8f c6 be 3e 01 89 3c 7c af b8 3e
       -0.37797824 -0.38781542 0.016724225 0.36071384
0000f0 53 0b 96 be 4e df 1e 3f c1 f9 7e be 4a a3 85 3d
       -0.29305515 0.62059486 -0.24899961 0.065252855
000100 65 17 2d 3f cc 5c 2c 3f d7 3c d7 be d2 2c d5 be
       0.6761382 0.67329097 -0.42038605 -0.41635758
000110 56 c2 5d bd f0 09 5f 3e 37 72 37 be 4a 6e 12 3f
       -0.05414041 0.21781135 -0.17914663 0.5719954
000120 0b c8 a4 be c9 23 95 3d 5b a5 16 3f 09 64 2c 3f
       -0.3218387 0.07282216 0.5884606 0.6734014
000130 0b b3 e4 be fd d0 e2 be af b8 0f be 8e 7b af 3d
       -0.4466785 -0.4430007 -0.14035295 0.08568488
000140 07 4b 9b bd 3b 7c 00 3f 88 23 d9 be 36 e7 a2 3d
       -0.0758267 0.5018956 -0.4240992 0.07954256
000150 6e 17 03 3f 7e bd 25 3f 57 14 e9 be af 76 f0 be
       0.51207626 0.6474227 -0.4552333 -0.46965548
000160 7d f6 72 be 6f ba 11 bd ca e8 27 3c 60 11 da 3e
       -0.2372684 -0.035578188 0.010248372 0.4259138
000170 e6 07 05 bf 7a 76 ae 3d e3 6d de 3e 5f a1 1a 3f
       -0.5196518 0.08518691 0.43443212 0.6040248
000180 00 ab e7 be c0 00 fa be 06 f3 b0 be 68 0c 08 be
       -0.4524765 -0.48828697 -0.34560412 -0.13285983
000190 1f db 96 3d db dd ac 3e 7a be 1a bf 8b c0 b6 3d
       0.07366013 0.33763012 -0.60446894 0.089234434
0001a0 41 17 c1 3e 92 7a 0b 3f 0a 87 e1 be 72 f1 00 bf
       0.37713054 0.544839 -0.4404834 -0.50368416
0001b0 86 33 ea be df db 5a be 0e a1 ed 3d fa 73 7a 3e
       -0.45742434 -0.21372937 0.11602984 0.24458304
0001c0 ad 87 30 bf 0b b1 bb 3d 4a a8 ab 3e 1b 45 f3 3e
       -0.68957025 0.09164628 0.33526832 0.4751366
0001d0 44 b5 d7 be 66 7e 03 bf a6 7e 10 bf 0e e7 8e be
       -0.42130482 -0.51364744 -0.5644325 -0.27910656

fc.bias f4 [12]
000000 3c ca 3e 3f 95 73 35 3f 43 8d 2b 3f 19 1a 21 3f
       0.74527335 0.7087949 0.67012423 0.62930447
000010 ba c3 16 3f da e4 0c 3f 95 94 03 3f d0 05 f6 3e
       0.58892405 0.550367 0.51398593 0.4805131
000020 ab dc e5 3e 75 bc da 3e 18 20 d2 3e af 09 cd 3e
       0.4489492 0.42721906 0.4104011 0.4004645
