homework2/gru.pt (torch, 7096 bytes, 10 tensors)

rnn.weight_ih_l0 f4 [30, 2]
1.3503033 0.6881827 -3.633837 -0.1106096 -0.96484846 -1.5532049 0.99786395 1.0500295
0.60952014 1.8669709 0.6326117 -0.3534091 1.0795213 0.72202945 -0.64747614 -0.037746437
0.7009143 -0.45861465 0.39039055 2.414114 1.4945968 0.39239898 0.52340674 0.56712234
1.8116632 0.55722946 -2.4538105 -0.019636 2.4283974 0.80974907 1.0591929 -1.099139
0.7289285 -1.4359454 1.3200144 -1.4110307 1.0578934 0.052892186 -0.4651448 0.18210103
-0.2983299 0.13168406 -4.113619 0.1404283 1.0644245 -1.0225668 -4.067105 -0.46286
0.036672566 1.3956873 -1.610582 0.63100874 -5.00055 -0.016272344 0.9890607 -3.5456088
0.22694725 -0.34735548 -0.46422493 2.0693166
00000000: bdd6 ac3f be2c 303f c990 68c0 4987 e2bd
00000010: 4f00 77bf 6bcf c6bf 0374 7f3f 5e67 863f
00000020: 8309 1c3f e7f8 ee3f d7f2 213f 0af2 b4be
00000030: c12d 8a3f ecd6 383f ffc0 25bf 029c 1abd
00000040: 1f6f 333f 8acf eabe 45e1 c73e d880 1a40
00000050: f34e bf3f 85e8 c83e fcfd 053f ee2e 113f
00000060: 94e4 e73f 97a6 0e3f 3b0b 1dc0 addb a0bc
00000070: dd6a 1b40 b74b 4f3f a293 873f 96b0 8cbf
00000080: 0f9b 3a3f 0fcd b7bf 3bf6 a83f a79c b4bf
00000090: 0d69 873f 7aa5 583d 7627 eebe b178 3a3e
000000a0: b2be 98be 30d8 063e c4a2 83c0 70cc 0f3e
000000b0: 103f 883f 78e3 82bf b925 82c0 fcfb ecbe
000000c0: f935 163d e2a5 b23f 8d27 cebf ca89 213f
000000d0: 8104 a0c0 944d 85bc 1533 7d3f 41eb 62c0
000000e0: dc64 683e 94d8 b1be e4ae edbe af6f 0440

rnn.weight_hh_l0 f4 [30, 10]
-0.18619902 0.97279423 0.27858803 -0.53832245 -0.5792515 -3.645802 0.015362429 0.92005855
1.4958708 0.22292495 -0.2951779 0.84148836 -0.8157884 0.33348688 0.15902697 -0.6184785
1.5188949 0.24980624 0.002323486 -1.0108258 1.2316927 0.42080733 0.43882847 -2.293161
1.6563574 -0.36483762 1.2907172 2.7529256 0.9668618 3.3195834 -1.2170023 -1.2032804
0.9352451 -3.229869 -0.7296718 1.6091362 -1.0262047 1.6656897 1.2284999 0.049061127
-0.33254793 -0.63706696 -0.69557905 0.62587273 0.72109884 -1.3572344 0.7082948 -1.7092332
3.0033183 -2.3965526 -0.59402066 -0.1501627 -0.93249357 -0.49500906 1.1150343 0.60414344
-1.2673177 -0.6106811 -1.3674214 1.0691825 0.91533047 -2.4274955 -1.1465874 -0.05127534
0.98009837 1.3042715 2.1752477 -0.07436952 -1.6231318 -0.63272095 -1.6410643 1.4403207
-3.1688178 -0.37404832 1.9732654 0.9922082 0.7649595 -0.9266307 -2.087977 0.64947355
-1.6865433 0.2075448 0.12488522 -0.63991445 1.3040227 -1.1977947 1.0425081 -0.4759154
3.2765064 -1.6111194 1.4005687 1.7488002 -1.6419276 -0.22612363 0.67590964 -1.6937406
0.6934701 -1.5765594 -0.44504443 0.8196109 0.59063953 0.70455647 0.23730129 -4.178085
-0.65471804 1.0427953 -0.0073390515 -0.5722851 -1.199891 2.1946461 7.719584 1.3412794
3.1756046 -2.1970234 -6.5546417 -2.266301 1.4960712 1.3330388 0.98940945 -0.48919544
0.77662754 2.9472046 -0.07189786 0.4714266 0.22640193 -0.26597765 2.5182505 0.09871786
0.3541844 -2.3926463 -0.8055881 -0.4859984 -0.41429964 0.062576905 1.3853109 0.11291181
-0.70682806 0.07461536 -0.30648243 -0.5469154 4.4063344 -1.1417158 1.1553115 1.4089392
-1.0502732 -1.0154741 0.818001 0.71318716 -0.10576922 -1.2254455 0.14342879 -0.22242676
0.06874318 -0.020910272 0.96445733 -0.6502592 -0.35383898 0.098207064 -0.69868994 -1.4236069
1.4201186 0.44624987 1.5537168 0.6285515 -2.232761 2.6656742 0.11384887 3.22749
-3.311518 1.0316168 0.9218442 0.34683204 4.7978206 -0.030077673 -1.1932389 0.10944586
0.3515351 0.85127085 3.8253367 -0.9183877 -1.1780868 -1.7890342 -0.15150951 0.59446734
1.4965883 -0.051594578 0.20007108 0.093563214 0.99042064 -0.016337564 -0.12017034 1.5884839
-2.3957467 4.0736027 5.255329 -0.4524786 -0.7371406 -1.6598598 0.6773524 -2.1806786
-0.47776607 4.263766 -1.1183907 0.72597486 0.28951403 1.6981652 2.0685618 -1.2287917
0.196899 -1.5945313 -0.65127194 0.11430547 -1.7440312 0.71442676 1.1988413 -0.47292
0.5921216 -1.7688787 -0.17968409 -1.7286061 0.8963902 -1.2445822 1.6812162 -1.6226248
0.7869286 0.15173706 -0.30990282 0.9256145 1.0976906 2.3496733 -0.30514687 -1.1015042
-0.62352574 -1.1559689 1.5032846 2.0239854 -1.4728816 -0.31769964 -1.4309862 0.32484353
-1.408452 -1.3441235 0.20302835 0.1398212 0.14798005 -0.3646602 -0.8846119 -1.3741779
1.4931914 -2.3851073 -1.1971462 0.35683855 0.40489316 -2.011253 -1.3392735 0.4792871
00000000: f5aa 3ebe 0b09 793f 17a3 8e3e 80cf 09bf
00000010: d449 14bf d254 69c0 b3b2 7b3c f588 6b3f
00000020: b278 bf3f 7046 643e 8f21 97be c86b 573f
00000030: 82d7 50bf cbbe aa3e f7d7 223e 9b54 1ebf
00000040: 266b c23f 35cd 7f3e a045 183b bd62 81bf
00000050: 1ba8 9d3f 0f74 d73e 20ae e03e 26c3 12c0
00000060: 8503 d43f ffcb babe 3936 a53f ef2f 3040
00000070: 4184 773f 0e74 5440 bbc6 9bbf 1805 9abf
00000080: 396c 6f3f 2cb6 4ec0 c5cb 3abf 2df8 cd3f
00000090: ad5a 83bf 5235 d53f 7c3f 9d3f 52f4 483d
000000a0: b943 aabe d216 23bf 7811 32bf 3239 203f
000000b0: ef99 383f dbb9 adbf cf52 353f 27c8 dabf
000000c0: 5e36 4040 1e61 19c0 bd11 18bf 40c4 19be
000000d0: e6b7 6ebf d471 fdbe 72b9 8e3f 25a9 1a3f
000000e0: 7737 a2bf 9955 1cbf aa07 afbf f9da 883f
000000f0: 1953 6a3f 165c 1bc0 60c3 92bf 1706 52bd
00000100: bae7 7a3f 5ef2 a63f 4237 0b40 0c4f 98bd
00000110: c8c2 cfbf 00fa 21bf 650e d2bf 6e5c b83f
00000120: e9cd 4ac0 4383 bfbe f693 fc3f 5b01 7e3f
00000130: 63d4 433f ab37 6dbf 6aa1 05c0 e643 263f
00000140: a7e0 d7bf a086 543e d2c3 ff3d 6fd1 23bf
00000150: 37ea a63f 5651 99bf e870 853f 2fab f3be
00000160: 48b2 5140 2939 cebf d645 b33f afd8 df3f
00000170: af2a d2bf f48c 67be 6a08 2d3f 7ecc d8bf
00000180: 4287 313f b3cc c9bf dddc e3be 05d2 513f
00000190: 2734 173f d05d 343f 1cff 723e dfb2 85c0
000001a0: 9a9b 27bf 517a 853f 6d7c f0bb 4781 12bf
000001b0: 0796 99bf 1575 0c40 d506 f740 0baf ab3f
000001c0: 1b3d 4b40 089c 0cc0 a0bf d1c0 130b 11c0
000001d0: 437f bf3f 04a1 aa3f f049 7d3f d377 fabe
000001e0: 10d1 463f 009f 3c40 2f3f 93bd d45e f13e
000001f0: e8d5 673e 392e 88be 042b 2140 972c ca3d
00000200: a857 b53e 1e21 19c0 063b 4ebf c8d4 f8be
00000210: 151f d4be 5228 803d de51 b13f 4f3e e73d
00000220: aff2 34bf f0cf 983d 44eb 9cbe a602 0cbf
00000230: b100 8d40 be23 92bf 3fe1 933f 1f58 b43f
00000240: 5a6f 86bf 0efb 81bf 8368 513f 6f93 363f
00000250: 889d d8bd 66db 9cbf ffde 123e d7c3 63be
00000260: 39c9 8c3d 054c abbc ade6 763f 6377 26bf
00000270: 622a b5be c920 c93d 58dd 32bf c038 b6bf
00000280: 72c6 b53f dd7a e43e 31e0 c63f c0e8 203f
00000290: 8ee5 0ec0 689a 2a40 9929 e93d 328f 4e40
000002a0: e9ef 53c0 050c 843f fbfd 6b3f f893 b13e
000002b0: bf87 9940 7465 f6bc 0dbc 98bf 2725 e03d
000002c0: 69fc b33e e3ec 593f 51d2 7440 751b 6bbf
000002d0: 8ccb 96bf 13ff e4bf 4f25 1bbe 032f 183f
000002e0: 3590 bf3f d654 53bd 6fdf 4c3e 129e bf3d
000002f0: 358c 7d3f 5bd6 85bc de1b f6bd 7153 cb3f
00000300: ea53 19c0 f45a 8240 a82b a840 46ab e7be
00000310: 3fb5 3cbf 4976 d4bf f866 2d3f 3d90 0bc0
00000320: c19d f4be c570 8840 6d27 8fbf 7dd9 393f
00000330: 2f3b 943e 7a5d d93f 5163 0440 0c49 9dbf
00000340: e49f 493e 9a19 ccbf c2b9 26bf fc18 ea3d
00000350: 6a3c dfbf ace4 363f a273 993f 9222 f2be
00000360: 4895 173f 9e6a e2bf 1bff 37be f742 ddbf
00000370: d479 653f 784e 9fbf 1832 d73f 2bb2 cfbf
00000380: 2774 493f f660 1b3e 95ab 9ebe 12f5 6c3f
00000390: 2081 8c3f 0c61 1640 363c 9cbe 17fe 8cbf
000003a0: 629f 1fbf caf6 93bf a16b c03f fa88 0140
000003b0: 6287 bcbf 87a9 a2be 8e2a b7bf e451 a63e
000003c0: 2848 b4bf 3d0c acbf aae6 4f3e 4a2d 0f3e
000003d0: 1588 173e beb4 babe ed75 62bf 10e5 afbf
000003e0: e520 bf3f 99a5 18c0 163c 99bf 8bb3 b63e
000003f0: 284e cf3e 5fb8 00c0 506d abbf 1e65 f53e

rnn.bias_ih_l0 f4 [30]
0.68543017 0.55274737 -0.706692 1.6109637 1.146038 0.9411714 1.0544142 0.48516047
0.5669888 0.49008197 0.21668896 -0.15954985 0.099064164 1.0106555 -1.2940199 1.2020302
0.97377187 0.54434204 0.8367964 1.4258862 -0.18831123 1.9114604 0.09901719 1.1127698
-0.4064452 -1.201556 0.6515833 0.16854174 0.5481011 -0.5757083
00000000: 5a78 2f3f da80 0d3f c4e9 34bf 0f34 ce3f
00000010: 60b1 923f 9cf0 703f 0bf7 863f f466 f83e
00000020: 2e26 113f 06ec fa3e b6e3 5d3e 0961 23be
00000030: 27e2 ca3d 295d 813f 72a2 a5bf 20dc 993f
00000040: 1d49 793f 005a 0b3f 4a38 563f 7083 b63f
00000050: a9d4 40be bcaa f43f 86c9 ca3d 3e6f 8e3f
00000060: 9619 d0be 96cc 99bf 2ace 263f 3596 2c3e
00000070: 5b50 0c3f 9f61 13bf

rnn.bias_hh_l0 f4 [30]
0.9072355 0.8374024 -0.8144568 1.4550738 1.0225813 0.72906685 0.73487276 0.33835244
0.9548236 0.49568835 0.30551183 -0.02795123 0.22345388 1.5356623 -1.2444893 0.67773247
1.3115661 0.91080534 0.28172478 1.3640962 0.062877506 0.906609 -1.093224 1.2762531
3.0471957 -0.40562838 0.86581665 0.27547 0.77880347 1.2559338
00000000: 9640 683f 0160 563f 3e80 50bf dc3f ba3f
00000010: f2e3 823f 20a4 3a3f 9f20 3c3f 883c ad3e
00000020: 526f 743f ddca fd3e 0c6c 9c3e faf9 e4bc
00000030: 18d1 643e 9590 c43f 6d4b 9fbf e07f 2d3f
00000040: 66e1 a73f 8a2a 693f 3b3e 903e b49a ae3f
00000050: ecc5 803d 8717 683f c4ee 8bbf 435c a33f
00000060: 4105 4340 86ae cfbe 29a6 5d3f 670a 8d3e
00000070: aa5f 473f 70c2 a03f

rnn.weight_ih_l1 f4 [30, 10]
1.2011274 -2.9807885 -0.22444269 -1.6563799 0.18329076 2.2373154 -2.536021 0.059598904
0.40937015 0.76786613 0.43167508 -3.4668946 1.1385181 -2.2692616 -1.0855545 -1.6090791
-4.798275 1.4796683 3.298485 2.0008492 2.1667 0.09235791 0.4899921 2.2860718
-1.0088936 -0.7177425 0.9168659 0.553246 0.6350034 -1.339071 -0.37775844 -0.33990592
-0.2350373 0.07172116 0.21501252 0.37652275 -0.09063061 -0.5132148 -0.04073186 0.19871232
-1.4002914 -0.54023916 0.0007281298 -0.6764789 -0.09881633 0.7563713 -1.3722088 -0.09761194
-0.68174034 0.4460356 0.20089716 -0.07344047 0.25824222 1.2967885 1.8998468 0.31672618
-1.5176322 0.38714194 0.41057807 -0.022665236 -3.7981775 1.0266197 -0.5119812 -1.2282493
-2.7256646 -0.067322575 0.91501224 0.59427446 -1.1754143 1.6019883 -0.21664475 0.71533227
0.884655 -2.603781 0.34641317 0.13420679 -0.513601 0.24653406 -0.3268678 2.2983594
0.7450929 -0.6021254 -1.1340014 -1.137218 1.5354527 1.2267255 -0.07776192 -1.0492429
-1.012026 -0.08280115 0.50367075 1.0162637 0.749015 0.83729243 1.5181713 -3.4966886
0.53255796 0.8198005 -0.15513663 -2.1547122 0.79527926 1.1080731 1.0153086 1.3735958
0.16724761 1.2888128 1.580513 0.7946863 -0.40804806 -1.2626072 -0.27910352 -3.6694117
0.7167232 -0.72223485 0.9415191 1.0845176 -6.0592585 -0.08796946 -1.9897857 0.58536613
1.4868964 -2.509712 0.28580093 -2.6628838 0.17103347 1.3277322 -2.0064237 0.017768072
-0.2782953 1.8878958 1.1444474 1.93375 -0.34218332 1.6727723 -0.3965155 -2.7463226
0.92270684 0.82143533 0.75233227 -1.2340198 1.0871521 0.6846715 0.3852054 -0.94291794
0.6904772 -1.3493823 -0.8403192 0.63827646 2.3438497 -0.6844218 -0.10416989 -1.7020975
-0.07549962 2.5571253 0.8832543 0.48833743 -0.8562037 0.42319155 -0.81380355 -1.9157805
-2.412204 1.053853 0.05555936 -1.906466 -0.114156574 1.7011534 0.45931247 0.73060054
-0.43070856 -0.16425301 1.9572209 1.1856087 -0.5332181 0.38486943 -0.6556681 -1.2212976
-1.0260566 1.1762052 -1.7502545 -1.8163321 -1.5275378 2.038288 0.210945 -0.043437317
-1.2364463 0.21440695 -0.6099051 2.9374306 -1.3436246 2.6256819 -0.92226034 -0.8349235
0.27175373 -1.4092723 -0.5429647 1.8120656 -1.4769042 0.5158355 -0.35517597 0.9286728
-1.56683 -2.1884263 0.55559045 0.04368527 -1.0138589 0.4349205 -1.1294937 -0.57536834
0.60333073 1.5592207 -1.1623049 0.4691385 -0.10388694 -1.6543221 -1.1664386 -0.8037557
-0.20810963 0.5332275 -0.13924006 -0.57193035 2.0786955 -0.9833448 0.6612171 -2.2901015
-1.2923257 1.4002564 -0.54291373 -0.12880632 -0.12962624 3.716642 1.4016956 0.7307019
0.5550463 0.745797 -0.9988952 -1.1024703 0.3032148 0.6811229 0.5585371 -0.38917646
2.447612 0.39532036 0.4286248 1.4993763 0.08259327 -1.4215862 0.96954554 0.56362987
0.54672575 -0.18802206 -0.19654228 0.46056712 0.35442847 -0.31753448 -0.5516009 0.2572152
00000000: 8bbe 993f 3dc5 3ec0 4ed4 65be 4204 d4bf
00000010: 93b0 3b3e 2d30 0f40 2b4e 22c0 fb1d 743d
00000020: f798 d13e e092 443f 8404 dd3e 9ae1 5dc0
00000030: f6ba 913f 953b 11c0 73f3 8abf 4ef6 cdbf
00000040: 788b 99c0 c565 bd3f 611a 5340 ea0d 0040
00000050: 36ab 0a40 2526 bd3d 3fe0 fa3e 004f 1240
00000060: 6d23 81bf f9bd 37bf b9b7 6a3f 88a1 0d3f
00000070: 958f 223f ae66 abbf 8e69 c1be 2608 aebe
00000080: 9ead 70be 8be2 923d 3e2c 5c3e 97c7 c03e
00000090: 8b9c b9bd 0c62 03bf 73d6 26bd 3e7b 4b3e
000000a0: c03c b3bf 1d4d 0abf f7df 3e3a b92d 2dbf
000000b0: 3760 cabd 8da1 413f 8aa4 afbf c5e8 c7bd
000000c0: 8986 2ebf c75e e43e fcb7 4d3e f567 96bd
000000d0: 5338 843e 2afd a53f 2e2e f33f ef29 a23e
000000e0: c641 c2bf 7837 c63e 4a37 d23e 72ac b9bc
000000f0: 5715 73c0 4668 833f 3311 03bf 4637 9dbf
00000100: 4a71 2ec0 6be0 89bd 3e3e 6a3f 5f22 183f
00000110: fa73 96bf f40d cd3f 1fd8 5dbe 0420 373f
00000120: c078 623f 59a4 26c0 115d b13e 816d 093e
00000130: 5b7b 03bf 6d73 7c3e 375b a7be 5218 1340
00000140: 69be 3e3f e424 1abf f526 91bf 5c90 91bf
00000150: b789 c43f 5705 9d3f a441 9fbd 974d 86bf
00000160: 118a 81bf a693 a9bd 91f0 003f ee14 823f
00000170: 72bf 3f3f cc58 563f 7053 c23f bfc9 5fc0
00000180: b855 083f 72de 513f 23dc 1ebe cee6 09c0
00000190: 6c97 4b3f 57d5 8d3f a2f5 813f fdd1 af3f
000001a0: f542 2b3e d1f7 a43f 404e ca3f 9070 4b3f
000001b0: adeb d0be 1d9d a1bf a8e6 8ebe a4d7 6ac0
000001c0: 2c7b 373f 62e4 38bf 6507 713f 79d1 8a3f
000001d0: 72e5 c1c0 5529 b4bd 4cb1 febf 8eda 153f
000001e0: 9f52 be3f 1f9f 20c0 8054 923e b06c 2ac0
000001f0: 6623 2f3e 21f3 a93f 3f69 00c0 598e 913c
00000200: b97c 8ebe 92a6 f13f 417d 923f 1f85 f73f
00000210: a732 afbe 671d d63f 1404 cbbe c0c3 2fc0
00000220: 8436 6c3f 9649 523f d998 403f 5cf4 9dbf
00000230: cd27 8b3f a246 2f3f a439 c53e 1263 71bf
00000240: 1dc3 303f 8fb8 acbf 291f 57bf 1666 233f
00000250: a201 1640 4436 2fbf 0657 d5bd 55de d9bf
00000260: 8b9f 9abd f1a7 2340 f41c 623f 5d07 fa3e
00000270: 2a30 5bbf 90ac d83e 6e55 50bf 4c38 f5bf
00000280: 8d61 1ac0 a8e4 863f 3692 633d 1407 f4bf
00000290: ecca e9bd 65bf d93f 012b eb3e a308 3b3f
000002a0: d585 dcbe f131 28be 3786 fa3f 07c2 973f
000002b0: fb80 08bf 9b0d c53e ddd9 27bf 7b53 9cbf
000002c0: d355 83bf e48d 963f 5708 e0bf 927d e8bf
000002d0: 5c86 c3bf 5073 0240 f701 583e 54eb 31bd
000002e0: df43 9ebf 7f8d 5b3e be22 1cbf ddfe 3b40
000002f0: e4fb abbf 2c0b 2840 4119 6cbf 8cbd 55bf
00000300: 4e23 8b3e 0963 b4bf bcff 0abf c4f1 e73f
00000310: 320b bdbf cc0d 043f a0d9 b5be 80bd 6d3f
00000320: e38d c8bf 2d0f 0cc0 2d3b 0e3f 53ef 323d
00000330: 21c6 81bf e6ad de3e 4093 90bf 574b 13bf
00000340: e273 1a3f 8b94 c73f 68c6 94bf ec32 f03e
00000350: adc2 d4bd d4c0 d3bf dc4d 95bf efc2 4dbf
00000360: b11a 55be 9981 083f f294 0ebe 076a 12bf
00000370: 5909 0540 7cbc 7bbf 8645 293f 0691 12c0
00000380: ee6a a5bf 9a3b b33f 65fc 0abf cee5 03be
00000390: bebc 04be 76dd 6d40 c36a b33f 480f 3b3f
000003a0: 8417 0e3f 8dec 3e3f 99b7 7fbf bf1d 8dbf
000003b0: f83e 9b3e 125e 2e3f 4afc 0e3f 2342 c7be
000003c0: ada5 1c40 6e67 ca3e b674 db3e 90eb bf3f
000003d0: a926 a93d 89f6 b5bf 2334 783f 0c4a 103f
000003e0: 38f6 0b3f db88 40be 6142 49be 74cf eb3e
000003f0: a677 b53e e193 a2be b735 0dbf b6b1 833e

rnn.weight_hh_l1 f4 [30, 10]
-1.9921511 -4.5847473 -1.3445759 -0.4387265 -0.48375273 1.3375577 1.8550774 0.42314807
0.41278023 -1.544959 0.7614539 0.25488436 -2.242366 0.30216253 0.39787236 -1.338196
-1.3744463 -0.18017787 -0.6894851 -0.7544686 0.30692732 -1.4315127 -2.2677174 0.459187
0.40005887 -0.4848827 -0.18536815 -1.3624754 -0.029348722 0.03334035 0.5790817 0.017262433
-0.3905715 -0.68560034 -0.63274056 -0.109411985 0.026112001 0.5375756 0.5463227 0.2922725
1.4774281 0.100684606 0.2992552 -0.49291182 -0.38386348 -0.4042686 -0.101409346 0.2894745
0.6346827 0.098234996 -0.33601528 0.14090495 -0.8977986 0.30583623 0.64011186 -2.7337325
-1.9560356 0.32369685 -0.46322462 -0.11029495 -1.3740308 -1.1460289 -2.0167418 0.895885
0.7433142 0.028786479 0.9983122 1.5328345 -0.84946585 2.546049 0.8354918 -0.7729281
-1.41078 0.83170384 0.9020513 -0.69533145 -0.055921815 -2.9984949 -0.9616276 -2.2159867
0.27566794 -0.4678495 -1.8244485 -1.9717484 -1.5625634 0.9869106 0.025472762 0.14561912
1.4986838 -0.28792766 -1.2669222 -2.924227 0.91262525 0.26005006 0.17654173 3.694015
2.8524032 -0.46613765 -0.20638448 5.5775905 0.119145654 -0.01567845 -0.5457784 -0.10220623
-0.44189796 0.7050302 0.1176405 -1.6565803 0.0041436786 -0.13015935 -1.297587 6.152319
-2.3908029 0.43186212 0.012444222 -0.09218935 0.017389253 -0.63650215 -0.34781805 3.1233404
-0.42339575 2.0096004 7.095902 -0.3306877 -0.06976376 2.7677877 -0.03381316 0.34979507
0.45252886 4.351269 -0.41402286 -0.46931133 -0.4415294 0.059849124 0.37598866 0.3486865
0.64496076 -0.37926322 -0.040019885 -0.72553426 0.99523675 -0.32429302 0.038029503 0.24345608
0.262564 0.16671568 0.7000841 -0.67388785 0.19894911 -1.3056414 0.28128964 0.22967017
1.4646177 0.17790604 0.09252355 0.77331454 0.70675904 -0.04610304 0.10187435 2.162709
-0.2651506 1.9517801 0.6496991 -0.24614488 -0.041518435 1.3336712 2.7632425 -0.4111902
0.066421516 0.054888472 0.7734634 -0.49053887 0.7867176 -0.05623449 -0.26485363 -0.5988838
1.0025189 -0.14061353 0.5273986 -0.08466303 -0.12668434 1.074621 4.759666 0.5863754
0.022402596 0.66543686 -1.4297289 0.31593606 0.69776887 -0.891988 0.07626413 -0.5863931
0.8178172 -1.2446775 -0.8909567 -0.09744637 2.840472 -1.344259 1.0350785 4.0393715
-1.1052853 0.8517303 -1.7324526 -0.844483 -0.85273236 0.08729563 -0.23341738 1.0280875
0.5968631 0.9450489 1.2658677 0.7935695 -0.84257156 -0.26520184 -0.27286857 -2.2075315
-1.769044 -1.2726713 0.07000835 -0.5002489 0.21808214 -1.0704633 0.88452244 0.10668906
0.21401492 -0.50156504 0.004037779 -0.19541654 -0.30209056 -5.1358905 -0.82482827 -0.11130359
0.26992038 1.0184348 0.72316825 -0.12845545 -0.47520015 -0.24507645 -1.0927513 -0.6468576
-1.6530124 -0.1356479 -0.7844131 0.6323958 0.3366506 0.07861248 0.19340332 -0.26284042
-0.22166133 0.28229946 -0.2590192 -0.5858488 0.92716384 -0.18422504 0.1506734 -2.6187873
00000000: cffe febf 40b6 92c0 101b acbf c3a0 e0be
00000010: 70ae f7be 1735 ab3f 2d73 ed3f dda6 d83e
00000020: ee57 d33e 37c1 c5bf a5ee 423f 3480 823e
00000030: ed82 0fc0 0cb5 9a3e edb5 cb3e 024a abbf
00000040: dbed afbf 8c80 38be 1882 30bf db24 41bf
00000050: 9425 9d3e cf3b b7bf 4822 11c0 8f1a eb3e
00000060: 84d4 cc3e 8c42 f8be 26d1 3dbe 9865 aebf
00000070: bb6c f0bc e48f 083d b33e 143f f269 8d3c
00000080: fdf8 c7be 8183 2fbf 49fb 21bf 6413 e0bd
00000090: d6e8 d53c 8e9e 093f cedb 0b3f bea4 953e
000000a0: 5d1c bd3f bb33 ce3d fa37 993e f05e fcbe
000000b0: c189 c4be 4bfc cebe b4af cfbd 0036 943e
000000c0: 917a 223f 6e2f c93d 320a acbe 6349 103e
000000d0: 21d6 65bf 9196 9c3e 5fde 233f 79f5 2ec0
000000e0: 605f fabf 98bb a53e c72b edbe 52e2 e1bd
000000f0: 3ee0 afbf 13b1 92bf 4c12 01c0 b858 653f
00000100: d749 3e3f 9fd1 eb3c 6391 7f3f ec33 c43f
00000110: 9876 59bf 78f2 2240 cae2 553f 9ede 45bf
00000120: 7094 b4bf 8bea 543f d6ec 663f 3e01 32bf
00000130: 460e 65bd 57e7 3fc0 3a2d 76bf bad2 0dc0
00000140: 5924 8d3e f889 efbe 8787 e9bf 4062 fcbf
00000150: 1402 c8bf 2ca6 7c3f 41ac d03c 2e1d 153e
00000160: dfd4 bf3f 416b 93be 822a a2bf 8926 3bc0
00000170: cfa1 693f 4825 853e 5bc7 343e be6a 6c40
00000180: c68d 3640 98a9 eebe 7456 53be 9f7b b240
00000190: a302 f43d 1870 80bc 22b8 0bbf 8051 d1bd
000001a0: 7340 e2be dc7c 343f 81ed f03d d30a d4bf
000001b0: b2c7 873b 7e48 05be 5517 a6bf ccdf c440
000001c0: ea02 19c0 081d dd3e dae2 4b3c c5cd bcbd
000001d0: e873 8e3c cef1 22bf 3515 b2be cfe4 4740
000001e0: 54c7 d8be 4b9d 0040 a111 e340 e64f a9be
000001f0: 4de0 8ebd 6f23 3140 ab7f 0abd 5718 b33e
00000200: ddb1 e73e 983d 8b40 cefa d3be 9349 f0be
00000210: 2410 e2be 5b24 753d 9681 c03e 0987 b23e
00000220: 261c 253f ca2e c2be e4eb 23bd 9dbc 39bf
00000230: d6c7 7e3f bc09 a6be d3c4 1b3d 8d4c 793e
00000240: ca6e 863e 84b7 2a3e b638 333f ea83 2cbf
00000250: 51b9 4b3e 421f a7bf 3205 903e a82e 6b3e
00000260: 9878 bb3f 002d 363e fd7c bd3d f1f7 453f
00000270: 29ee 343f 8bd6 3cbd 80a3 d03d d369 0a40
00000280: d2c1 87be eed3 f93f ae52 263f 670d 7cbe
00000290: 3c0f 2abd bdb5 aa3f f7d8 3040 8687 d2be
000002a0: 0108 883d bcd2 603d b301 463f e927 fbbe
000002b0: 5366 493f 2356 66bd e59a 87be 7350 19bf
000002c0: 8a52 803f fefc 0fbe 9803 073f d063 adbd
000002d0: 8ab9 01be 2e8d 893f 2f4f 9840 b31c 163f
000002e0: a685 b73c 125a 2a3f 5b01 b7bf 5fc2 a13e
000002f0: fba0 323f 5359 64bf 5e30 9c3d dc1d 16bf
00000300: 785c 513f 9851 9fbf bd15 64bf f691 c7bd
00000310: 4bca 3540 ae10 acbf 747d 843f 8842 8140
00000320: fd79 8dbf ff0a 5a3f 02c1 ddbf 0a30 58bf
00000330: ab4c 5abf 0dc8 b23d f704 6fbe 5f98 833f
00000340: 05cc 183f baee 713f f407 a23f 5f27 4b3f
00000350: c5b2 57bf 89c8 87be 6eb5 8bbe 3248 0dc0
00000360: 0970 e2bf e5e6 a2bf 8a60 8f3d 5010 00bf
00000370: ed50 5f3e f104 89bf 1070 623f cb7f da3d
00000380: ba26 5b3e 9166 00bf 584f 843b 461b 48be
00000390: 9dab 9abe 3759 a4c0 f227 53bf 23f3 e3bd
000003a0: 0133 8a3e 125c 823f 8e21 393f d389 03be
000003b0: 6f4d f3be 52f5 7abe 46df 8bbf 7698 25bf
000003c0: e995 d3bf 48e7 0abe 4ccf 48bf b1e4 213f
000003d0: 785d ac3e 94ff a03d 850b 463e 0593 86be
000003e0: 30fb 62be 8e89 903e 2a9e 84be 30fa 15bf
000003f0: 9c5a 6d3f 7da5 3cbe 214a 1a3e 369a 27c0

rnn.bias_ih_l1 f4 [30]
0.44033062 -0.4271394 -0.43428832 0.69442034 0.780774 -0.7033802 -0.94515103 -0.37123933
1.5952352 0.52610767 -0.44922644 0.74666506 0.9649201 -2.1367025 -1.70078 0.1568996
0.0045167105 0.138432 -0.3469691 1.3170438 0.7210594 -0.09089943 0.025365787 -1.9945436
-1.3679675 0.19433475 0.030903272 0.031895056 0.7592864 0.5547223
00000000: 0473 e13e 04b2 dabe 0a5b debe 88c5 313f
00000010: cee0 473f ba10 34bf 6bf5 71bf 1513 bebe
00000020: ab30 cc3f feae 063f 0201 e6be 7125 3f3f
00000030: 0105 773f bcbf 08c0 29b3 d9bf 4aaa 203e
00000040: ea00 943b 1ec1 0d3e efa5 b1be e494 a83f
00000050: 5997 383f 7b29 babd e9cb cf3c 344d ffbf
00000060: 8f19 afbf b0ff 463e dc28 fd3c 64a4 023d
00000070: 9860 423f 4802 0e3f

rnn.bias_hh_l1 f4 [30]
0.14302483 -0.52738446 -0.043702263 0.9590664 0.58896935 -0.22735271 -0.68995553 -0.38131258
2.0614715 0.35527098 -0.37583032 0.51316416 1.2141212 -1.974017 -1.8161881 -0.08239135
-0.281069 0.22379413 -0.2468359 1.503727 0.4827469 0.7653537 -0.4140469 -1.570088
-1.1516957 0.1828058 -1.221001 0.5172197 0.5244245 -1.2118146
00000000: 1a75 123e ab02 07bf 2501 33bd 6085 753f
00000010: b2c6 163f 26cf 68be eda0 30bf 673b c3be
00000020: 26ef 0340 14e6 b53e d56c c0be ba5e 033f
00000030: 5368 9b3f 97ac fcbf da78 e8bf ccbc a8bd
00000040: 47e8 8fbe 4a2a 653e 8dc2 7cbe 207a c03f
00000050: 9a2a f73e 38ee 433f f5fd d3be a5f8 c8bf
00000060: c46a 93bf 7231 3b3e c349 9cbf 8368 043f
00000070: af40 063f be1c 9bbf

fc.weight f4 [12, 10]
-0.08830744 0.03708335 -0.098740384 0.20559026 0.19805607 -0.5023925 -0.040472582 -0.39410052
0.49692896 -0.01147019 -0.029396687 -0.087495655 -0.13489018 -0.0631134 0.1316353 -0.427773
-0.0712867 -0.40076694 0.40512082 0.012267824 0.023230055 -0.14976524 -0.16112693 -0.1633204
0.0703549 -0.35610253 -0.10472197 -0.39185372 0.63391346 0.017985879 0.08781032 -0.20008257
-0.16987953 -0.26541463 -0.076855525 -0.29668602 -0.12741804 -0.35919484 0.38555646 0.021634862
0.1410209 -0.2067269 -0.17026547 0.19649492 -0.056059133 -0.2387941 -0.14922613 -0.31959832
0.40928635 0.0076021827 0.1919863 -0.19765854 -0.16294828 -0.11985818 -0.043324027 -0.19058289
-0.16447312 -0.2667587 0.25910613 -0.016071234 0.23165746 -0.15664847 -0.14797425 -0.036586083
-0.0130069405 -0.14717281 -0.17699556 -0.21554834 0.28584164 -0.05342468 0.25808352 -0.08588298
-0.12382258 0.06427018 0.06409523 -0.107819535 -0.18676957 -0.17030865 0.4505166 -0.1024134
0.28097165 -0.011481088 -0.09083835 -0.047084365 0.04769485 -0.07851309 -0.18993779 -0.123599865
0.3292099 -0.15562487 0.28826243 0.08177615 -0.053444475 0.034380265 0.016361287 -0.053390358
-0.19378428 -0.08738467 0.3591208 -0.21592493 0.28349453 0.18374869 -0.011956304 -0.16732031
0.01802318 -0.03321936 -0.19802658 -0.059870467 0.44986618 -0.27828625 0.27371228 0.27428252
0.035498187 0.0063570444 0.041853875 -0.020714067 -0.19925945 -0.035170853 0.3848767 -0.33596158
00000000: 88da b4bd b6e4 173d 6638 cabd 4186 523e
00000010: 36cf 4a3e cb9c 00bf 94c6 25bd 8bc7 c9be
00000020: 796d fe3e 77ed 3bbc 52d1 f0bc ec30 b3bd
00000030: a720 0abe 9941 81bd 67cb 063e 1005 dbbe
00000040: c3fe 91bd 5331 cdbe ff6b cf3e fcfe 483c
00000050: f54c be3c 0f5c 19be 75fe 24be 773d 27be
00000060: 3b16 903d 1253 b6be 7978 d6bd 0da1 c8be
00000070: 2748 223f 1f57 933c e6d5 b33d 72e2 4cbe
00000080: e6f4 2dbe 6de4 87be 6e66 9dbd 3be7 97be
00000090: e079 02be 63e8 b7be a867 c53e 983b b13c
000000a0: c867 103e 37b0 53be 125a 2ebe f735 493e
000000b0: 439e 65bd 7186 74be bcce 18be 64a2 a3be
000000c0: fb8d d13e bb1b f93b 0e98 443e 0067 4abe
000000d0: eadb 26be 3578 f5bd 8974 31bd 2928 43be
000000e0: a46b 28be 9994 88be 8fa9 843e d2a7 83bc
000000f0: 9d37 6d3e 7568 20be 9086 17be 4adb 15bd
00000100: 101b 55bc 78b4 16be 533e 35be b4b8 5cbe
00000110: d659 923e d6d3 5abd 8623 843e 6ae3 afbd
00000120: b196 fdbd 16a0 833d 5c44 833d 7dd0 dcbd
00000130: 8640 3fbe 6465 2ebe 1daa e63e 1ebe d1bd
00000140: 84db 8f3e 2c1b 3cbc 7509 babd 89db 40bd
00000150: ad5b 433d 79cb a0bd 0d7f 42be ed21 fdbd
00000160: 338e a83e 205c 1fbe 2297 933e 417a a73d
00000170: 98e8 5abd 52d2 0c3d 1b08 863c d9af 5abd
00000180: 636f 46be bcf6 b2bd aede b73e 6d1b 5dbe
00000190: 3226 913e 9e28 3c3e 60e4 43bc 0456 2bbe
000001a0: 59a5 933c 0611 08bd 7bc7 4abe bc3a 75bd
000001b0: dc54 e63e 897b 8ebe 0424 8c3e c26e 8c3e
000001c0: 8c66 113d c14e d03b f86e 2b3d 8cb0 a9bc
000001d0: ab0a 4cbe 500f 10bd 8f0e c53e 2803 acbe

fc.bias f4 [12]
0.5883823 0.62640417 0.346922 0.5315044 0.45440647 0.5537865 0.48774254 0.29714593
0.3966311 0.36045936 0.27539405 0.35110578
00000000: 39a0 163f 065c 203f c39f b13e ac10 083f
00000010: f7a7 e83e f4c4 0d3f 64b9 f93e 8323 983e
00000020: 3b13 cb3e 218e b83e 7300 8d3e 23c4 b33e
