homework2/lstm1.pt (torch, 9606 bytes, 10 tensors)

rnn.weight_ih_l0 f4 [40, 2]
00000000: 513d eebf 9e07 acbe 6aaa a0c0 59c8 273d
00000010: e85b da3f cfdc 073f 2d24 813d 28bf eebe
00000020: 7a59 18be 9626 873e 72b7 c1bf 8900 45bf
00000030: 2f88 5540 b9cb e3be 50dd eabf 6d0f d93e
00000040: bfe6 42bf 08bf 95be 8f10 5d40 4b74 ff3c
00000050: d8ef b73f de32 9b40 9b29 0ac0 9a43 e1be
00000060: 4995 173f a031 2ebf 0b7d 593e f830 3bbf
00000070: d0b1 7d3f 14f5 fa3e 6d71 9bbd afcb 523f
00000080: f5bb d5bf 8689 83c0 c938 46c0 2fa1 c83e
00000090: 0ba5 7fbf 79d1 a73f 48fb d7be e7cf 59bf
000000a0: 8465 29be d876 cf3f 58fe b8be 2664 3b40
000000b0: 6b5c 1bbf f909 dfbe 12d9 0c3e c07b c0bf
000000c0: 0211 febe e1f1 cf3e 1732 6d3d 73ec b4bf
000000d0: 5ab3 86c0 dfdb a73c f584 753f 41ef d7be
000000e0: 578d 953e c514 28bf c04e 8f40 820a 9e3d
000000f0: 3eea 07c0 8af4 0e3f c337 17c0 7fc6 6f3f
00000100: 94c8 2c40 be3a 603e df5a 07c0 c176 09be
00000110: 5bc7 e2be b926 793f 1287 46c0 86e0 1dbd
00000120: 6615 6240 0b37 e7be 28bc 74c0 e5a2 a7bd
00000130: 54ee 9540 2d82 08be 7b5a b63f 2bc4 cc3e
-1.8612462 -0.3359956 -5.0208025 0.04096255 1.7059298 0.530713 0.06305728 -0.46630216
-0.14877883 0.26396626 -1.5134108 -0.7695394 3.336437 -0.44491366 -1.8348789 0.4239458
-0.7613334 -0.29247308 3.4541357 0.031183382 1.437007 4.8499594 -2.1587894 -0.43996888
0.59212166 -0.6804447 0.21239106 -0.73121595 0.99099445 0.49015105 -0.075899936 0.82342046
-1.6697985 -4.1105375 -3.097216 0.39185473 -0.9986121 1.3110801 -0.421839 -0.8508286
-0.16542631 1.6208143 -0.3613155 2.9279876 -0.60687894 -0.43562296 0.13754681 -1.5037766
-0.4962235 0.40614226 0.057909098 -1.4134659 -4.2093935 0.020490585 0.95906 -0.42174724
0.29209396 -0.6565669 4.478363 0.07716848 -2.123672 0.55841887 -2.3627784 0.93662256
2.6997423 0.21897408 -2.1149213 -0.13424207 -0.4429272 0.9732471 -3.101994 -0.0385442
3.532556 -0.45159182 -3.8239841 -0.081853665 4.685343 -0.13330908 1.4246362 0.39993414

rnn.weight_hh_l0 f4 [40, 10]
00000000: 0379 6e3f 871d 883d 957b b4bf 2fb1 0bc0
00000010: b203 5dbf b51d b5c0 fa23 5fbf e13a cc3e
00000020: e40e fa3e 5950 673f 60c0 3a3f 1dcc 953f
00000030: 577b 9dbe fbdc acbf 4c41 093f 8b0a acbc
00000040: ca87 0dbf 59cd 4abf 81eb 163f 46c6 06bf
00000050: 66aa 51c0 ffcf e9bf 81e6 dabf adc6 98be
00000060: 12e3 8bbf 8068 2e3f 4168 773e 1cc4 8cbf
00000070: 1642 e73f 262e 2b3f ee05 1ac0 a831 7dbf
00000080: 0ea9 9ebf ba90 9cbf 427d fc3f 5418 62be
00000090: b1e6 e7bf 4d1c 863f 9540 07c0 b9f5 b93e
000000a0: 2238 803c 268d 5dbf f6dd 86be 560f e83e
000000b0: 9c97 14bf 6b26 6f3f 7692 55bf a91e b0be
000000c0: 9ec3 3240 e486 fc3f b962 773e c3f6 34bd
000000d0: 6ef0 723f 9012 adbe 0bd6 3540 d6f6 4440
000000e0: 3117 87bf c8e6 163f 5504 52bf 13e8 933d
000000f0: 3b40 80c0 b65a 233f 20e8 2cc0 17fb 46c0
00000100: aae5 e43f 2022 0040 d4f9 00c0 101d c73f
00000110: 5d5b a5be 58ec c6be 1716 0440 b2a5 b73f
00000120: 2167 5dbe d8c9 29c0 a011 0540 4c1c 55bf
00000130: c97e bc3f fb31 6dbf c574 0440 5def 903f
00000140: e2de ea3f 898d 6240 e3fd 05bf 9920 c3be
00000150: 132e b9be b2f7 dabf 7c6e e63f 4a03 22c1
00000160: c65a 0f3f d4b2 63c0 1179 ffbe 5a09 ebbe
00000170: 5fec 0340 81ff 41c0 bb61 3a3d d5f6 1d3f
00000180: a9c9 1dbf 4b0d 0540 d0d3 e7bf 1207 203e
00000190: c6d7 fb3f 22af 0e3f e1f6 a1bd f940 e23f
000001a0: ed4c ce3f 164e 17c0 4d45 42c0 37fd 0440
000001b0: 8abd 36c0 e8bb 79bf 80fb 8d3f 9d5a e73e
000001c0: 3229 e1bf 9f79 eb3f 83ef da3f 199e c63e
000001d0: b16e 58bd b13a 39bf 9852 343e f9ae 8c3e
000001e0: 2590 46bf 5003 c73f 536f 6cbf 79bb 8b3f
000001f0: cb93 3e3f e001 1840 274b e33e 0026 18c0
00000200: 528b c540 1139 26c0 bb9b c6bf 0794 d63f
00000210: 12e8 86bf 3a22 23bf 0d73 753f 2da7 8abf
00000220: 73d9 a53f 2b43 01c0 121f b4bd 0c48 d53d
00000230: 653f b8bf be9a 713f a424 e0bf a394 1cc0
00000240: f9d9 233f 06e2 a33f 4e9b 22bf cd0f 783e
00000250: a00b 323a 2eeb f9be c6ad 2c40 5236 35bf
00000260: f6bc cf3f 4e15 64bf 3947 8140 cf45 56bf
00000270: ff5f dcbf d8ef 12c0 c7a5 42bf e5bd a1be
00000280: a42d d93f fb2c f43e 37fd 9cbd bb76 d6bf
00000290: 45a9 11bf d15e e33f 7e4c fd3f 0f0e 5bbf
000002a0: a751 2140 9a7a 51c0 3b97 a23e 0412 313f
000002b0: d40e 16c0 d5b1 adbe 0894 f23f cf36 ef3f
000002c0: 8a85 98be b39e 05bf e3d9 5440 f414 043c
000002d0: 3814 5ec0 61f8 fcbe a72e 1ec0 7aff babf
000002e0: 2318 743f 2e3a 3bc0 16ce 1d40 2934 203f
000002f0: 8e1d 593f f07e 1f3f b400 2fbf cb53 b63e
00000300: c1fc dabf cde2 3ec0 c9d4 373e 1b09 5bc0
00000310: 4ec1 4d3f 95ee e5bf 2739 e9bf 896e 8d3f
00000320: 3c99 b340 67bc 2e40 e216 96be 46f2 7cbf
00000330: df07 723f da83 1a3f 2879 d63f 592b bfbf
00000340: 479a d340 3e62 18bf ea49 9140 7f4e 4140
00000350: 14e0 bb3e 7502 dbbe 2954 c03e 20e7 3b40
00000360: 1ced 9c3d 49f9 57c0 3aed cc40 9fd8 f7bf
00000370: ade9 aa3f 71c7 933f 96a7 93bd 785e ecbf
00000380: d5aa e03f e8bb 773d 3069 89bf 7146 1740
00000390: c156 aebe f758 ae3f a012 32bf cf67 ff3e
000003a0: f724 ccbf 5844 623f 6ab6 02bf 11a9 c640
000003b0: 672e 8ebf a609 bf3f 2f3a 2ebf a8f4 443f
000003c0: c7c9 4b3f 13bf 15bf 424b 1c40 f910 3d3d
000003d0: 0e62 51bf 5c3e ac3f 610e 2dc0 ccc2 e63f
000003e0: 6add 3d3f d306 423f cfb3 ba3f 6051 2040
000003f0: 4dba bb3e 0fa0 873f d117 5d3f 1538 4340
0.931534 0.06646257 -1.4100214 -2.1826894 -0.86333764 -5.6598763 -0.8716427 0.3988867
0.48839486 0.90356976 0.7294979 1.1702915 -0.30758163 -1.3504938 0.5361526 -0.021001121
-0.5528532 -0.79219586 0.589531 -0.5264629 -3.2760253 -1.82666 -1.7101594 -0.29839078
-1.0928671 0.68128204 0.24160863 -1.0997348 1.8067043 0.6686729 -2.406612 -0.98903894
-1.2395341 -1.2231667 1.9725726 -0.22079593 -1.8117276 1.0477387 -2.1133168 0.36320284
0.015651766 -0.865435 -0.26341218 0.453242 -0.5804384 0.93417996 -0.83426607 -0.34398392
2.7931895 1.9728665 0.24158753 -0.044180643 0.94898117 -0.33803225 2.8411891 3.0775657
-1.0553952 0.58945894 -0.8203786 0.07221999 -4.0078406 0.6381029 -2.7016678 -3.1090753
1.7882588 2.0020828 -2.0152483 1.5555744 -0.32296267 -0.3885219 2.0638483 1.4347441
-0.21621372 -2.6529446 2.0792007 -0.832463 1.4726192 -0.9265439 2.069627 1.1323048
1.8349268 3.5398886 -0.52340525 -0.38110808 -0.36167964 -1.7106841 1.8002467 -10.125803
0.55997884 -3.5577898 -0.49897054 -0.45905572 2.061302 -3.0312197 0.04550336 0.6170476
-0.61635834 2.0789363 -1.8111515 0.15627697 1.9675224 0.5573598 -0.079084165 1.7676078
1.6117226 -2.364141 -3.0354798 2.077955 -2.8553185 -0.9755235 1.1092377 0.4518632
-1.7590697 1.8396491 1.7104343 0.38792494 -0.05283994 -0.7235518 0.17609632 0.27477244
-0.775637 1.5547886 -0.9235737 1.0916587 0.74444264 2.3751144 0.44393274 -2.3773193
6.173257 -2.597233 -1.5516275 1.6763924 -1.0539572 -0.637241 0.9587868 -1.0832268
1.2956985 -2.0197246 -0.08794989 0.104141325 -1.4394346 0.9437674 -1.7511182 -2.446572
0.64004475 1.2803352 -0.63518226 0.24224778 0.00067918934 -0.4881224 2.6981063 -0.7078601
1.6229541 -0.8909501 4.039944 -0.8370027 -1.7216796 -2.295889 -0.76034206 -0.3159019
1.6967053 0.47690567 -0.076654844 -1.6754984 -0.5689891 1.7763311 1.9788969 -0.85568327
2.5206087 -3.273108 0.31756005 0.69168115 -2.344655 -0.33924738 1.8951426 1.8688601
-0.29789382 -0.5219528 3.3257987 0.008061636 -3.469984 -0.49408248 -2.4715974 -1.4609215
0.9534933 -2.925426 2.4657035 0.6257959 0.8481072 0.62303066 -0.6836045 0.35610804
-1.7108384 -2.9825928 0.17952265 -3.4224308 0.80373085 -1.7963434 -1.8220567 1.1049358
5.6124554 2.7302492 -0.29314333 -0.9880718 0.9454326 0.6035744 1.6755724 -1.4935104
6.6125827 -0.59524906 4.5402727 3.020416 0.36694396 -0.42775312 0.3756421 2.9359818
0.076624125 -3.3745902 6.4039583 -1.9362983 1.3352562 1.154524 -0.07209699 -1.846633
1.7552134 0.060481936 -1.0735226 2.3636744 -0.34050563 1.36209 -0.6955967 0.49883887
-1.5948781 0.88385534 -0.5105959 6.208138 -1.1107911 1.492482 -0.6805753 0.76935816
0.7960476 -0.5849468 2.4420934 0.046158765 -0.81790245 1.345653 -2.7040026 1.8028197
0.74165976 0.7579166 1.4586123 2.5049667 0.36665574 1.0595721 0.86364466 3.050298

rnn.bias_ih_l0 f4 [40]
00000000: 2976 91bc e071 ab3f 2d06 92bf 7e4e bb3f
00000010: 26f8 9cbf 4acf 093f 4d6d 763e 0594 e23e
00000020: 2a3b 943e 71c6 c7bf 3911 a73f 3544 8f3f
00000030: 9fdf 293f 098b 9f3f d7c6 29bf 4e4d 36be
00000040: 4a45 14c0 503d 12be 4f9d 6bbf 8592 8fb9
00000050: e4ba 57bc fc43 97be 1128 0e3f b8aa d13e
00000060: 1ca2 3dbf 9077 c3be 1e73 b53f 0b6a 403d
00000070: 447d 913e d309 f1bf 74f7 3fbf d3ef a33f
00000080: a8fd d9bf 132b a53f 6227 34bf 2ca2 a03f
00000090: ff60 3c3e 56f0 813f 5c41 54bf 04f4 2bbe
-0.017756538 1.3394127 -1.1408135 1.4633329 -1.2263229 0.53831923 0.24065132 0.44253555
0.2895139 -1.5607435 1.3052131 1.119269 0.66356844 1.2464305 -0.6631903 -0.17802927
-2.316729 -0.14281201 -0.9203691 -0.0002738425 -0.013167117 -0.29544055 0.55529886 0.4095056
-0.74075484 -0.38177156 1.4175756 0.04697613 0.28415883 -1.8831123 -0.7498696 1.2807564
-1.7030535 1.290377 -0.70372593 1.2549491 0.18396376 1.015147 -0.8291223 -0.16792303

rnn.bias_hh_l0 f4 [40]
00000000: e080 dc3e a3e4 b93f 703a 86bf df10 d23f
00000010: 0d47 b3bf e845 be3e 1ae1 db3e 6bd9 133f
00000020: e026 eb3d cccb d4bf 7dbb 543f 456c ae3f
00000030: f7ec 053f 95be 973f 569a c1be e97e 46bd
00000040: 2357 19c0 a579 22be 59df 9bbf 6e38 b53d
00000050: 989a bd3d 5e33 b1be 498e 083f ed47 3f3f
00000060: bdd0 88bf e796 17bf db7f ae3f 163a a8be
00000070: ca85 453f 7bdb 01c0 8f8b 96bf f7bd 833f
00000080: ccac c9bf b5f5 9e3f 9839 bbbe def5 8c3f
00000090: f1fe e23e dde6 613f 247d 39bf c5d6 71bd
0.43067074 1.4522899 -1.0486584 1.6411399 -1.4006058 0.3716271 0.42945176 0.5775363
0.11482024 -1.6624694 0.83098584 1.3626791 0.52314705 1.1855036 -0.3781306 -0.048460875
-2.3959434 -0.15866716 -1.2177535 0.08848654 0.09258002 -0.34609503 0.5334211 0.74719125
-1.0688702 -0.59214634 1.3632768 -0.32856816 0.7715727 -2.029021 -1.176134 1.0292348
-1.5755858 1.2418734 -0.36567378 1.1012533 0.4433513 0.88242894 -0.72456574 -0.05904271

rnn.weight_ih_l1 f4 [40, 10]
00000000: 2c46 77bf 6778 23bf 704e 8abf 9f36 dabd
00000010: db93 0c40 48e1 22bf e0bb 37c0 4e67 ae3e
00000020: 11b3 07bf 7600 533f 1c24 16c0 6219 853f
00000030: c844 c33f ca47 42bf 0699 2540 8f85 243f
00000040: 3824 fbbd eeb2 0440 47cb 4cc0 4778 f5bf
00000050: 103a 983f 2b3d aa3f 9a23 eabf 715c 41bf
00000060: ea08 ce3e 9a1a 01bf ac43 febf 108c adbe
00000070: ae4f 9abf ed26 1240 1f04 cc3f dd39 963f
00000080: de9c e7bf 89b3 c2bf 0e7a 803f 9035 aebe
00000090: fb66 40c0 1cdb a1be b2ac 4dc0 c9f2 9e3f
000000a0: f980 30bf 9168 acbc e5af 573f 17f6 ffbf
000000b0: 5a35 d340 3408 ec3f aeb0 19c0 83f1 a940
000000c0: 5653 d5be 7e5d 37bf 9f70 2a3f b07d 1cbf
000000d0: 074a 0dbd 4d9c 73bf 108b a13f 5d8b 403f
000000e0: e16c d5bf fe1d 803f fa47 f5bf f5c0 923f
000000f0: cfb9 c9be 4735 a3bf 2432 6fbe fd0a 3bbd
00000100: 2f50 90bf e796 cebc d277 ab3b d2a2 4d40
00000110: 700b a3c0 82c8 d63f b523 8f3f 0ed3 f7bd
00000120: 3e88 89bf cc0c 903f fd8b 6040 daf2 bf3f
00000130: a110 36c0 8c61 bb3f d0f1 a9bf ac48 1840
00000140: 7d4e 18be 6881 9cbf cf9c e1bf da88 59bf
00000150: 5ddf 1dbf 5a0e 693f 3c5a 03c0 2c7a 6ebf
00000160: 5b8f 5abf ba15 fe3e 01f1 9bbf 205e 373e
00000170: c133 31c0 ae95 c1bf 35b6 1e40 1759 303f
00000180: 4b09 3ec0 a976 28bf 1eeb bebf b31f a4bd
00000190: 8f9a 20be 1f84 9f3e e9a9 f3be 4ff8 25bf
000001a0: 0612 0a3f 1931 c33d 9b7b b4bf 1761 0b3f
000001b0: e39e 39bf e10d a33f 652d bf3f 5b26 483f
000001c0: c955 483e 2e74 3540 1f49 a33f a4e2 97be
000001d0: ad50 00c1 ab35 593f de78 81bf cd65 ac3f
000001e0: 7e7c 05be 8932 20be 0f60 debf 13a9 17bf
000001f0: e582 653f 2b55 293f c333 1a3e 6c57 4cbf
00000200: 6f0b 54bf 9fec 9a3f 5d52 d1be c5f5 a73e
00000210: e090 33bf bece abbf 9878 d43f 95d1 293f
00000220: afc1 953f 4cbe 1fbf 903e c3bd 9a06 d7bd
00000230: 920f c4bf fe97 4bbf 955a 38bf 4296 22bf
00000240: 051a 97bf 0cbf 09c0 5698 783f 9967 0940
00000250: 1039 24c0 696c c5bf f64f 0740 4e7b 603f
00000260: 1ed1 9d3f 83db be3d 5f31 b5be 3b4c 4bbe
00000270: e741 22c0 aeb1 01c0 f2d5 093e 0484 0fc0
00000280: a77f 0a40 1969 f03f b66c 153f 4020 9fbe
00000290: 0657 943f 3d61 833e 34a6 86bf 6c02 92c0
000002a0: 0874 5d3e 56f6 ca3f afee f2bf 0d17 3dc0
000002b0: 3550 cd3f f4da 0b41 5744 c3bf 0dad ad3f
000002c0: 6cbc b9bf d794 b440 ff85 0a40 37ad 293e
000002d0: 4358 d7bf 1c8e 5d40 b088 e1bf b6bb cfbf
000002e0: b82d 153f f4c9 073f cf63 0e3f 2cda febf
000002f0: d52b 8d3e 7d2c 12c0 c4a6 9cbf c740 423f
00000300: 0a65 40bf a1d3 40bf aaf6 b03f 21e8 5abe
00000310: 602b 96bf e712 fc3e de30 4ebe a8fe 87be
00000320: cf67 eebe 6bb2 a43e cfde c33f d2c5 15bf
00000330: 4e6e f7bf 8220 89bb 4e7b c23f 93fe cdbe
00000340: ee5a 2140 9fdc 09c0 4db1 8440 f844 3840
00000350: df6d b93f e0a5 07c0 8890 37be f99c ae3e
00000360: 7b2b c4bf 86ce c53e 4d85 673f 8654 a8bf
00000370: ec1f c2be 5bb3 283f 61dd a33f b5b0 bfbf
00000380: 06d1 7cbe 48be 073f 813f 1e3f a582 bfbf
00000390: 12fc 233f d22c 18c0 60a1 2fbf ebea f23e
000003a0: 988e d63f 7e44 84bf ac57 05be c73f c33e
000003b0: 7505 0b3f 44a7 4cbf 8a3b c73f 6f87 10c0
000003c0: 1c1c b640 8bf8 ffbe 33a9 5d3f 98db 2dc0
000003d0: 835e 103f 3e51 8bbf cd7f 4440 3c0f 5cc0
000003e0: b055 2c3e 1846 09be 05d3 a03f 64a4 04bf
000003f0: 0b1b aebe 6427 1e40 f429 21bf 24a2 82be
-0.9659145 -0.63855594 -1.0805187 -0.106549494 2.1965244 -0.63625 -2.870842 0.3406319
-0.5300761 0.8242258 -2.345954 1.0398371 1.5255365 -0.7589079 2.5874648 0.64266294
-0.122627676 2.073421 -3.199907 -1.9177331 1.1892719 1.3299917 -1.8292115 -0.7553168
0.40241176 -0.50431216 -1.9864402 -0.33895922 -1.2055566 2.2836258 1.5938758 1.1736408
-1.8094747 -1.521104 1.0037248 -0.3402524 -3.0062854 -0.3161248 -3.2136655 1.2417842
-0.68946797 -0.021045955 0.8425277 -1.9996976 6.6002626 1.8440003 -2.4014087 5.3107314
-0.41665143 -0.7162703 0.66578096 -0.61129284 -0.034494426 -0.9516037 1.2620564 0.7521265
-1.6673852 1.0009153 -1.916259 1.1465136 -0.39399573 -1.2750634 -0.23358971 -0.045664776
-1.127447 -0.02521844 0.0052327896 3.2130628 -5.095146 1.677994 1.1182772 -0.12100802
-1.0744703 1.1253905 3.5085442 1.4995987 -2.844765 1.4639144 -1.327692 2.3794355
-0.14873691 -1.2226992 -1.7625979 -0.84974444 -0.6166895 0.91037524 -2.0523825 -0.9315517
-0.85374993 0.4962595 -1.2182924 0.17907 -2.7687838 -1.5123804 2.479871 0.6888594
-2.9693172 -0.6580606 -1.4915502 -0.08013859 -0.1568396 0.31155488 -0.4759057 -0.64832014
0.5393375 0.09530849 -1.4100221 0.5444502 -0.72508067 1.273861 1.4935728 0.78183526
0.19563974 2.835216 1.275669 -0.296651 -8.019696 0.84847516 -1.0115011 1.3468567
-0.13035771 -0.15644278 -1.7373065 -0.5924236 0.89652854 0.6614558 0.15058808 -0.79820895
-0.82829946 1.2103461 -0.4088315 0.32804695 -0.70142937 -1.3422468 1.6599302 0.6633542
1.1699733 -0.62399745 -0.09533417 -0.10499306 -1.5317252 -0.79528797 -0.7201322 -0.63510525
-1.1804816 -2.1522856 0.97107446 2.146948 -2.5659828 -1.5423709 2.1142554 0.8768815
1.2329443 0.09319212 -0.3538923 -0.19853298 -2.5352724 -2.0264697 0.1346052 -2.2424326
2.1640413 1.8782073 0.58369005 -0.31079292 1.1589057 0.25660124 -1.0519471 -4.5627956
0.21626294 1.5856426 -1.897909 -2.954532 1.6040102 8.740955 -1.5255231 1.3568436
-1.4510627 5.643169 2.1644285 0.16569982 -1.682381 3.4617987 -1.7619839 -1.622916
0.58272886 0.5304253 0.55621046 -1.9910331 0.27572504 -2.2839653 -1.2238393 0.7588009
-0.75154173 -0.7532292 1.3825276 -0.21377613 -1.1731987 0.4923317 -0.20135829 -0.26561475
-0.46563575 0.32167372 1.5302371 -0.58504975 -1.9330537 -0.0041847834 1.519388 -0.40233287
2.521175 -2.1540906 4.146643 2.8792095 1.4486655 -2.1194992 -0.17926228 0.34104136
-1.5325769 0.38634127 0.90437776 -1.3150795 -0.3791498 0.65898675 1.2801934 -1.4975802
-0.24689111 0.5302472 0.6181565 -1.4961745 0.64056504 -2.3777356 -0.68605614 0.47444853
1.6762266 -1.0333402 -0.13021725 0.38134596 0.543052 -0.7994273 1.5565045 -2.2582662
5.6909313 -0.4999431 0.865863 -2.716528 0.56394213 -1.0884168 3.0703003 -3.4384298
0.16829562 -0.13405645 1.2564398 -0.5181334 -0.34005007 2.4711542 -0.6295464 -0.25514328

rnn.weight_hh_l1 f4 [40, 10]
00000000: c8c5 75bf 9cb5 843e fb7a 38bf f839 76bf
00000010: d5c9 e7bf 4e59 a03f 4b14 92bf 0799 e7be
00000020: 0d1a b6bd b63a ff3f a53a 5dc0 7501 1e40
00000030: 6b2e 873f 57f5 3a3f 4d17 2f40 ce12 b5bf
00000040: 9501 1cc0 8bec d73e dd77 a43f 4c23 c2bf
00000050: 99bf 633f 7022 b73f a31b 50be 715d 6a3e
00000060: f53c 89bf 6825 4d3f e1d3 963f b0e1 023f
00000070: a7e0 c7bf 81cc 8bbf b2bb 173f dc8d bd3f
00000080: 9b29 c8be 75dc f2be ba56 3dbf 6033 453f
00000090: 5a1a 873f dde0 ce3e c81e 3cbf fbb5 e3be
000000a0: 804c a0c0 a667 8440 c037 b33e f0c8 a13e
000000b0: 142f 4abf cb68 53be 5a80 01c0 88b6 1c40
000000c0: 6384 5f3e 0121 3bc0 37e9 e23d ed15 34bf
000000d0: d4c2 613e acb3 4c3f 4773 a3c0 137a 603f
000000e0: a066 bcbe 4117 38bf ca8c 51bf 72eb 26bd
000000f0: 7d54 44bf 1f8b 533f e22c ebbc 5c2d 043e
00000100: 446a 9a3f 11f4 833e 7438 103f a23b 6fbf
00000110: 8e6f 84bf c8e5 d63e c0e9 22bf 9db6 a43d
00000120: 7e28 16bf f99c c2bc 87cf 41c0 65cc 5c3f
00000130: 998d 8240 03db 37bf 0953 e640 98ca d8bf
00000140: 372a 2ebf 0339 53bf e662 0e3f 1f24 853f
00000150: e252 8bbf 9da8 e0bf d610 10be dfb9 b2bf
00000160: 9943 e43e af7d 89c0 678b 053d c8f7 7f3f
00000170: 6c7a f1be 1aee 273d baa5 c4bf 729b a3b9
00000180: a798 a83f cfa6 49bf b47e a0bf 04e1 f73d
00000190: 1e9e 0bc0 2c37 733f bba4 5dbf ed00 80bf
000001a0: c3a7 82c0 6923 25be 0592 8d3f fd0a c23e
000001b0: 6750 7cbf a26e 6f3f e0e6 d7bf a6c2 453f
000001c0: f3a4 00be e716 393e ced2 5a3f da78 0840
000001d0: 60f7 ed3d d534 71c0 41f8 a03f 79d7 dfbf
000001e0: 37fd 2dbf af80 da3e 1d00 dbbe 9fc1 a5bf
000001f0: 5a98 97bf dfa6 58bf 0c66 ff3e 6999 a53d
00000200: 614a 17bc 4ef2 ab3f ee05 16bf 7844 0f3f
00000210: 89a2 b7bf 6978 ebbf 4873 edbf cecc c9be
00000220: 0d41 9a3e 31b8 453f 1921 02be 70fd b13f
00000230: e8e2 1e40 b8c1 9c40 85bd 8b3e 951b bf3d
00000240: 717b 1dbd 042d 31bd 1c25 37bf 07ad 0140
00000250: be79 0bc0 7a63 e63f ffad d4bf 5d1a 38bd
00000260: 9d3b 37bf 2b92 52bf df66 c9c0 1b73 da3f
00000270: 037d 0e40 590a f63f f9b5 8a3f bc9b 6d3f
00000280: 8133 023f 98f4 e93d 15f5 9ebf 5dc6 33bf
00000290: 9e07 53c0 f1dd ce3f 530c dd3e 850b bbbf
000002a0: cd41 2dc0 4d2a a4be f1e7 b240 cd80 6dbf
000002b0: 8fb4 623e c30c e23c 6676 4440 c51c 963f
000002c0: bf16 243f 3842 0fc0 edda f43f 4360 63c0
000002d0: 22a3 ec3f 4e7f 4040 b8fc bbbe c48f f8bd
000002e0: 7c81 8040 d018 5dbe a449 f5bf 23b7 82bf
000002f0: 5142 22c0 27e8 8c3f 02e4 41bf 4655 b73f
00000300: 6ab9 bebf f304 c6bf a387 24c0 45b7 46be
00000310: 5d11 8bbf 1af1 66bf 5daa 38bf 14ef 143f
00000320: 1ead 1c3d ff2e 3c3e 2f8e a93e 899e aabd
00000330: 0119 3d40 66fd 92bf 659d e9bf 0164 1cbf
00000340: c6fa 22bf 8543 b63e 4de3 e8c0 5c83 903f
00000350: 7122 063f 9661 9c3e 9226 c53f b73e 963f
00000360: 6103 fdbf da5b 23be cee0 013d 8ff3 14bf
00000370: 5044 0640 1603 403f bd43 8b3f 6cee d63f
00000380: 9e04 9d3f f3c2 32c0 128d 65bf 764e 1e3f
00000390: e98d 653e 8312 2dbf 120a d73f aa98 533c
000003a0: 11b3 423f 49d2 003f 4039 a43f b5ed 34c0
000003b0: a4e3 88bf 6722 013f 8ba5 f93e d018 a1bf
000003c0: 7e17 50c0 4e36 aa3f d2c0 73be a060 293f
000003d0: d186 9fbf 9319 56be 5e99 49c0 d3ae 0e40
000003e0: c89c e43e 05eb 873e d3b8 1bbf 1a79 0b3e
000003f0: 8e60 81bf 827d 2a3c fc72 92c0 9fb0 a43f
-0.96004915 0.25919807 -0.72062653 -0.96182203 -1.8108469 1.2527254 -1.1412443 -0.45233938
-0.088916875 1.9939792 -3.4567044 2.468839 1.0561041 0.7303061 2.7357972 -1.4146364
-2.4375966 0.42172655 1.2849079 -1.5167022 0.8896423 1.4307384 -0.20323043 0.22887208
-1.0721728 0.801352 1.178341 0.5112562 -1.5615433 -1.0921785 0.59270775 1.4808917
-0.39094242 -0.4743382 -0.7396046 0.7703152 1.0554917 0.40405932 -0.7348447 -0.44474778
-5.0093384 4.1376524 0.3500347 0.31598616 -0.78978086 -0.20645444 -2.023459 2.4486408
0.21827845 -2.9238894 0.110796385 -0.70345956 0.22046977 0.7996166 -5.107822 0.8768627
-0.36797047 -0.7191048 -0.8185545 -0.040751882 -0.7669142 0.82634157 -0.028707925 0.12907928
1.206368 0.25772145 0.5633614 -0.9345037 -1.0346544 0.41972184 -0.63637924 0.08042643
-0.58655536 -0.023756491 -3.0282915 0.8624938 4.079785 -0.7181856 7.197636 -1.6936827
-0.68033165 -0.8250887 0.5561966 1.0401648 -1.0884669 -1.7551457 -0.14068922 -1.3962973
0.44582823 -4.296592 0.032603648 0.9998746 -0.47163713 0.040998556 -1.5363076 -0.00031205598
1.3171586 -0.78770155 -1.2538667 0.12103465 -2.1815257 0.9500606 -0.86579484 -1.0000283
-4.0829787 -0.16126789 1.1060187 0.37899008 -0.98560184 0.9352819 -1.6867332 0.77250135
-0.12562923 0.18075143 0.8547791 2.1323762 0.11619449 -3.7688496 1.2575761 -1.7487632
-0.679645 0.42676303 -0.42773524 -1.2949713 -1.1843369 -0.84629625 0.49882543 0.08085901
-0.009234042 1.343332 -0.586028 0.5596385 -1.4346477 -1.8396121 -1.8550806 -0.39414066
0.30127755 0.7723418 -0.12707938 1.3905468 2.4825993 4.8986473 0.2729303 0.09331433
-0.0384478 -0.04325582 -0.71541 2.0261858 -2.1793056 1.7999108 -1.6615599 -0.044947017
-0.7157534 -0.82254285 -6.2938075 1.7066377 2.22638 1.9221908 1.0836784 0.92815757
0.5085984 0.11423606 -1.2418543 -0.70224553 -3.29734 1.6161481 0.43173465 -1.461289
-2.7071412 -0.32063523 5.590813 -0.9277466 0.2213919 0.027593976 3.0697265 1.172753
0.6409721 -2.2384167 1.9129311 -3.5527503 1.8487284 3.00777 -0.36716247 -0.12136796
4.015806 -0.21591496 -1.9163098 -1.0212139 -2.5352976 1.1008347 -0.7573854 1.4322898
-1.4900334 -1.547026 -2.5707786 -0.1940585 -1.0864674 -0.9021164 -0.72134954 0.58177304
0.038251035 0.18377303 0.3311629 -0.083310194 2.954651 -1.1483581 -1.8251158 -0.61090094
-0.636639 0.35598388 -7.2777467 1.1290088 0.52396303 0.30543202 1.5402396 1.1737889
-1.9766656 -0.15953007 0.03170853 -0.5818414 2.0979195 0.7500471 1.0880047 1.679151
1.2267034 -2.7931488 -0.8966838 0.6183847 0.22417416 -0.6760637 1.6799948 0.012914816
0.76054484 0.5032087 1.2829971 -2.8270085 -1.069447 0.5044312 0.48759112 -1.2585697
-3.2514338 1.3297822 -0.23804024 0.66163063 -1.2463018 -0.20908193 -3.1499858 2.2294204
0.44650865 0.26546493 -0.60828894 0.13620415 -1.0107591 0.0104059 -4.576536 1.28664

rnn.bias_ih_l1 f4 [40]
00000000: 5ba9 403e 63f5 f2bd 4905 1040 1f0c 1640
00000010: 26c4 1a3f 94fd 30bf 2b9d aabf 11ce bcbe
00000020: dcae 7fbe 62bd 903e 52d5 293f e557 8a3d
00000030: 50c2 5c3f be2e c23e 0590 47bd 02a7 7c3e
00000040: 0326 503f a2d1 eebe 8c1d 093f 18c6 f33e
00000050: c407 51be ee53 193f cde9 95be 7744 14bf
00000060: c7c2 2d3c 7f53 293e 116a 56be 3da3 eebe
00000070: b541 ea3e 336e 743e 6376 6bbf 6e87 33bf
00000080: 5bb4 ccbd f071 4a3f 1729 10bf fcce 6abf
00000090: bbde 1fbf 3a08 2dbe c4a3 06bf f10e bdbf
0.18814604 -0.1186321 2.2503226 2.3444898 0.6045555 -0.6913693 -1.3329214 -0.36875966
-0.24969047 0.28269488 0.66341126 0.06755046 0.86234 0.37926286 -0.048721332 0.24673083
0.81308 -0.46644312 0.5356071 0.4761207 -0.20413119 0.5989369 -0.29279938 -0.5791697
0.010605521 0.16535757 -0.20938899 -0.46608916 0.45753255 0.23870163 -0.9197752 -0.70128524
-0.099953376 0.79080105 -0.563127 -0.91722083 -0.62449235 -0.1689767 -0.52593637 -1.4770185

rnn.bias_hh_l1 f4 [40]
00000000: 7ab4 fa3e a4cb dabe 48cc 2340 ec54 1640
00000010: d716 4c3f 5a84 13bf 5d3c d0bf 38b2 8ebe
00000020: 90c4 ddbe 2cde 163f 8258 273f 15cc adbe
00000030: 3e53 a83e ba47 3d3f ac3b a5be 3d18 173f
00000040: 0f2a 983f 039f 47be 990d 2f3f 6d73 553f
00000050: b460 71be f28c 2c3f efb3 cebd d015 8cbe
00000060: c887 6abe 0705 d03e 24ce a3bd bcb3 25bd
00000070: 213d 563e 6924 733e 69f3 57bf 7244 55bf
00000080: c11c 65be e263 913f 1e85 e7be e8c9 24bf
00000090: 92db 4dbf 44ee 2fbf 327f ebbe c110 c3bf
0.48965818 -0.4273349 2.5593433 2.3489332 0.7972235 -0.5762383 -1.6268421 -0.27870345
-0.43314028 0.5893276 0.6536943 -0.33944765 0.3287601 0.7393757 -0.3227209 0.5902136
1.1887835 -0.19494252 0.68380123 0.8337925 -0.23572046 0.67402565 -0.10092913 -0.27360392
-0.22903359 0.40628836 -0.079983026 -0.04045461 0.20921756 0.23744358 -0.8435579 -0.83307564
-0.2237425 1.1358607 -0.45218748 -0.64370584 -0.8041316 -0.6872294 -0.4599548 -1.5239488

fc.weight f4 [36, 10]
00000000: 6867 91bd 2a24 e9be b1e2 16bd 1f22 27bf
00000010: 6e8a 1bbd a3a3 17be c1d1 863e e847 a8be
00000020: e2a1 f63b 8263 13c0 e633 4e3d 9465 34bf
00000030: 6502 59bd 8b79 13bf 0c03 ebbc be72 84be
00000040: 0bd7 7c3e ad7f 9bbe 7e6b 313d a900 00c0
00000050: 8dc2 293e 59d3 5cbf 1a4d 79bd 1794 0cbf
00000060: 341e b7bc e763 9dbe b55d 653e adae 98be
00000070: f01a 863d 52fb d7bf 2eab 883e c854 7dbf
00000080: 2141 91bd e4ec f4be b518 80bc 32f4 9bbe
00000090: 8b24 433e f3c5 99be 1839 9f3d 4cb0 b3bf
000000a0: 4ba1 b73e 2cfa 82bf 1dbc 9fbd 8bd4 dcbe
000000b0: f87f 8ebc 83d9 7fbe 152f 253e 46f3 9cbe
000000c0: e931 a23d 4f01 8fbf b230 e23e 036b 7fbf
000000d0: 85aa a1bd fc08 d8be ae2c adbc 1dfa 23be
000000e0: e39b 073e da41 a3be 3fd9 8e3d 7590 55bf
000000f0: ebc9 023f e02e 67bf 8177 8cbd d178 fabe
00000100: 0f1b cabc 2e29 d9bc 9599 df3d 2418 aebe
00000110: 35e0 3a3d 506e 0cbf 2427 0b3f f1fd 63bf
00000120: a4ea 89bd 03b4 dabe f674 23bc 163f 233e
00000130: 7991 843d 282c bdbe 7cd9 0e3c 440a b4be
00000140: 22da 0d3f 77b2 55bf f52d 81bd bb34 c3be
00000150: ca9c a03b 8ef3 c43e 9e53 cf3c a746 cdbe
00000160: 75ff 24bd 5ce3 38be ef6e 0c3f f64e 3cbf
00000170: 9d30 48bd 73dd d2be 401f 993c 7613 1e3f
00000180: ff9f 53bb 6eea e0be e39b ccbd 2b1b 7fbc
00000190: 9575 043f 211f 2fbf 085a 16bd 7a1f cebe
000001a0: 0e81 223d 8083 573f 9bbf 14bd 7b23 f9be
000001b0: 26cc 29be 3e29 c23d e951 eb3e b255 2bbf
000001c0: 70e5 dabc fafa b5be 3658 843d 6102 863f
000001d0: 4a23 95bd 6db4 0abf 8146 72be 5ffc 183e
000001e0: 3b29 c83e 71b0 14bf f89a f6bb b364 cebe
000001f0: 675b a33d 592e 9c3f d7ab c3bd 338b 18bf
00000200: a8d3 9ebe 7e54 583e 0b7d 9f3e 7dd7 03bf
00000210: acd6 103c cd47 debe 2705 c03d 78d4 aa3f
00000220: 19cc f9bd fe8f 25bf 0c0f c2be 64af 763e
00000230: 2540 5d3e 415d 13bf 33cd 033c 1940 9ebe
00000240: b88b ec3d 9e42 b03f dea1 31be 0d29 31bf
00000250: 2118 e0be b89f 3f3e dff1 073e 7596 e8be
00000260: 711a 0c3d ce38 eabe c474 f53d 12e2 ab3f
00000270: c833 3ebe 3cd7 3abf 2b1d fdbe f5cd 653e
00000280: 4d90 193d 9961 f3be 4fb0 073d fa73 c0be
00000290: 77d7 0d3e 9926 a03f 205a 6dbe f307 43bf
000002a0: c214 09bf d8f7 223e f273 35bd 5d2d e2be
000002b0: 8abb 193d 45b1 c2be 2f49 213e f9ab 8a3f
000002c0: 941b 88be 8ad8 47bf e86a 10bf c813 f93d
000002d0: 677a e5bd 59bc bfbe 772b 273d 1ef8 d4be
000002e0: 7918 383e c59d 5a3f 6629 98be 61d6 48bf
000002f0: a9dc 13bf 554b c33d 03d2 26be c703 81be
00000300: 9e35 3c3d 09e0 01bf 23c5 503e a8a3 143f
00000310: e481 a4be 694d 46bf 7ce4 13bf 546f bb3d
00000320: 30e3 62be 5bd3 a8be bb47 1f3c 6394 82be
00000330: 7d24 7f3e 133d a33e d62d cabe 0748 40bf
00000340: 1698 0ebf f2a8 3bbd 77b5 6abe c4c5 cebd
00000350: b57d 6e3c 440b e2be ac42 8e3e b8e8 913b
00000360: d1e6 cebe 0551 34bf c427 07bf b32c 833b
00000370: 3ad3 77be e13e 1cbd 623e 79bc ac0f afbe
00000380: fe5e a83e 4fa8 85be 1fa7 e8be 0df3 25bf
00000390: 39c5 f6be 7bd0 65bd 01ea 6cbe d738 023e
000003a0: 2eab 0dbd f895 bdbe 2f49 c33e ea20 febe
000003b0: bc98 f8be 7ebc 13bf 07e2 dbbe b6f3 68bd
000003c0: 6955 52be 8461 a43e ea1d 60bd 5e84 d6be
000003d0: 1e8d e33e 5b26 2bbf e04d 02bf a0d0 fdbe
000003e0: 7d0c bebe 1238 22bd 14ae 2dbe b8c7 003f
000003f0: ab11 9fbd 48b3 e8be 9007 053f 5dc5 46bf
-0.07099801 -0.45535403 -0.036837284 -0.6528644 -0.037973814 -0.14808516 0.26331905 -0.3286736
0.007526622 -2.3029485 0.050342463 -0.70467496 -0.0529808 -0.57607335 -0.028687976 -0.2586879
0.24691407 -0.30370846 0.043315403 -2.0000403 0.16578121 -0.8625999 -0.060864545 -0.5491347
-0.02235327 -0.30740282 0.22399028 -0.29820767 0.06548107 -1.6873572 0.266931 -0.9895749
-0.070925005 -0.47836983 -0.015636781 -0.30459744 0.19056909 -0.30033836 0.07774562 -1.4038177
0.35865244 -1.0232596 -0.07799552 -0.43130907 -0.017395005 -0.24985318 0.16131242 -0.30654353
0.07919676 -1.1172274 0.44177777 -0.9977266 -0.07893852 -0.42194355 -0.021139469 -0.1601338
0.1324306 -0.31886178 0.0697503 -0.8342355 0.5108935 -0.903059 -0.06858731 -0.489203
-0.024671106 -0.026508894 0.10917965 -0.34002793 0.045623977 -0.54855824 0.543566 -0.8905936
-0.06734207 -0.42715463 -0.009976616 0.15942034 0.06473059 -0.3694775 0.0087188445 -0.35164082
0.5541097 -0.8347544 -0.06307594 -0.38126168 0.004901503 0.38467067 0.025308426 -0.40092966
-0.040282685 -0.1805548 0.5485677 -0.73557985 -0.048874486 -0.41184577 0.018691659 0.61748445
-0.003229141 -0.43928856 -0.099906705 -0.015570442 0.51741916 -0.68406874 -0.036706954 -0.4025839
0.039673857 0.8418503 -0.03631554 -0.48659882 -0.16581783 0.094805226 0.4596093 -0.66927636
-0.026720732 -0.35543042 0.064621374 1.0469476 -0.072821215 -0.5418156 -0.23659708 0.14940022
0.39093956 -0.5808173 -0.007525798 -0.40311202 0.07976418 1.2201644 -0.0955426 -0.595874
-0.31020856 0.21125981 0.31150088 -0.51500684 0.008840244 -0.43414155 0.09375983 1.334609
-0.12197132 -0.6467284 -0.37902105 0.24090344 0.216065 -0.5756417 0.008044529 -0.30908278
0.11550087 1.377033 -0.17346904 -0.69203264 -0.4376841 0.18713272 0.1327586 -0.4542729
0.034204904 -0.45746464 0.11985162 1.3428366 -0.1857444 -0.7298467 -0.49436316 0.22441848
0.03749113 -0.475354 0.033127125 -0.37588483 0.13851725 1.2511779 -0.23178911 -0.76184005
-0.535473 0.15914857 -0.044300027 -0.44175234 0.037532367 -0.3802587 0.15750574 1.0833732
-0.2658354 -0.7806479 -0.56413126 0.12161976 -0.11204987 -0.37448385 0.040812936 -0.41595548
0.17978086 0.8539699 -0.29719085 -0.78452116 -0.57758576 0.09535853 -0.1629105 -0.25198194
0.04594957 -0.50732476 0.20387702 0.5806222 -0.3213035 -0.7746187 -0.57770514 0.091520935
-0.22156978 -0.3297375 0.009721692 -0.25503835 0.24916263 0.31882533 -0.39488095 -0.75109905
-0.55700815 -0.045815416 -0.22920786 -0.100963145 0.014556338 -0.4414922 0.27785242 0.004452791
-0.40410474 -0.70436126 -0.5279505 0.0040031313 -0.2420167 -0.038145903 -0.015212627 -0.34191644
0.32884973 -0.26104972 -0.45440003 -0.6482399 -0.48197344 -0.056107026 -0.2313614 0.12716995
-0.034587078 -0.3702848 0.38141772 -0.49634486 -0.48554027 -0.5770949 -0.42945883 -0.056873046
-0.20540394 0.3210565 -0.05471603 -0.41897863 0.444436 -0.668554 -0.5090008 -0.4957323
-0.37118903 -0.039604254 -0.16960937 0.50304747 -0.07767042 -0.4544928 0.51964664 -0.776449

fc.bias f4 [36]
00000000: 3d75 ac3e cd70 d03e f2a9 dc3e 184d fd3e
00000010: efd5 083f 2d20 0a3f 82e3 f23e d982 073f
00000020: a474 113f b064 093f 0fe9 0a3f 9284 153f
00000030: 4891 093f 109a 013f f8ba 1e3f 88d8 f63e
00000040: 273f 0e3f 9fce 0c3f d9d6 033f ee32 db3e
00000050: 61e0 273f c1fa f43e 3203 103f df1b 073f
00000060: 7c08 f23e 9abf db3e 639d 033f 0af6 df3e
00000070: 112c 9a3e d32c df3e e298 e13e 0902 e83e
00000080: 39f0 e83e 1342 fb3e c756 d13e 8bf0 fc3e
0.33683196 0.4071106 0.43098408 0.4947288 0.53451437 0.53955346 0.474392 0.5293403
0.56818604 0.5366926 0.5426187 0.5840541 0.53737307 0.50625706 0.6200404 0.48212075
0.5556511 0.5500278 0.51499707 0.42812294 0.6557675 0.4784756 0.56254876 0.527769
0.47272098 0.42919618 0.5141203 0.437424 0.30111745 0.43588886 0.44061953 0.45314053
0.45495775 0.49073848 0.40886518 0.4940227
