homework2/rnn.pt (torch, 7716 bytes, 14 tensors)

rnn_cell_list.0.x2h.weight f4 [10, 2]
0	0x40486f14	3.1317797
1	0x3e044a8f	0.12919067
2	0x404e3665	3.22207
3	0x3cdc14b0	0.026865333
4	0x3f79ae60	0.975317
5	0xbed24c7b	-0.41073975
6	0xc0187c50	-2.3825874
7	0xbe5214b9	-0.20515718
8	0xbe505953	-0.20346574
9	0x3e9355b8	0.28776336
10	0xbec59f7d	-0.38598242
11	0xbecf174c	-0.40447462
12	0x3c7d0136	0.015442183
13	0xbf2b0188	-0.6679921
14	0xbe225c28	-0.15855467
15	0xbef847df	-0.48492333
16	0x3fad582d	1.3542534
17	0xbf04280e	-0.5162362
18	0x3e2c7af0	0.16843772
19	0xbe851061	-0.2598906

rnn_cell_list.0.x2h.bias f4 [10]
0	0xbf884dfb	-1.0648798
1	0xbfc9694d	-1.573526
2	0x3f31221e	0.69192684
3	0x3fdf7fa4	1.7460828
4	0xbf8c1102	-1.094269
5	0xbebfec57	-0.37485
6	0xbeebbe37	-0.4604356
7	0x3ff833de	1.9390829
8	0x3f0b4409	0.5440069
9	0x3ff04d9c	1.8773685

rnn_cell_list.0.h2h.weight f4 [10, 10]
0	0x3d7d440f	0.061832484
1	0xbd791eb8	-0.06082031
2	0xbe8476d6	-0.25871915
3	0xbdf8245e	-0.121163115
4	0x3e7de758	0.24795282
5	0xbe334989	-0.1750852
6	0x3e4838a3	0.19552855
7	0xbe89beb9	-0.26903322
8	0x3ea028b0	0.31281042
9	0x3e7c0ce7	0.24614297
10	0xbd3f80ac	-0.04675357
11	0x3e01dd22	0.12682012
12	0xbe21fac7	-0.1581832
13	0x3e6d3c5f	0.23167561
14	0x3e12d63b	0.14339535
15	0xbdf57474	-0.11985102
16	0x3e3ff8e1	0.18747284
17	0x3cb27e84	0.021788843
18	0x3dca92f1	0.09891308
19	0xbd24afcd	-0.04020672
20	0xbe5ad337	-0.21369635
21	0x3e602482	0.21888927
22	0xbdfa83c8	-0.122321665
23	0xbdaf5281	-0.08560658
24	0xbdfa0b24	-0.12209156
25	0xbe5bfc80	-0.2148304
26	0x3e805275	0.2506291
27	0xbe9fa2e2	-0.31178957
28	0x3e83dfea	0.2575677
29	0xbe828ab8	-0.2549646
30	0xbe362ef1	-0.17791344
31	0xbdb00f4a	-0.08596666
32	0x3e9a0558	0.30082202
33	0xbe53c19f	-0.2067933
34	0xbdc71c10	-0.09722149
35	0x3db73fdb	0.08947726
36	0x3e100341	0.14063741
37	0x3e72b0ea	0.237003
38	0xbde6ba2b	-0.112659775
39	0x3da0c311	0.07849706
40	0x3e41bc07	0.18919383
41	0xbcbcb489	-0.023035305
42	0xbd11f227	-0.035631325
43	0x3e4f7125	0.20258005
44	0x3e7dd797	0.24789272
45	0x3e680355	0.22657521
46	0x3e82cc3f	0.25546452
47	0x3e1cc706	0.15310296
48	0xbe3f0cfe	-0.186573
49	0xbe952cb9	-0.29135683
50	0xbe3883aa	-0.18018976
51	0x3da78698	0.081799686
52	0xbc9c8603	-0.01910687
53	0x3e40f436	0.18843159
54	0xbe3d80fc	-0.18506235
55	0xbdc8b339	-0.09799809
56	0x3e6021fa	0.21887961
57	0x3dc48bd9	0.09596986
58	0xbe6ac5fb	-0.22927086
59	0x3e0c64b0	0.13710284
60	0x3e32f5ea	0.17476621
61	0xbe81b23b	-0.25331292
62	0x3e8bbae4	0.27291024
63	0xbdac9d32	-0.0842842
64	0x3d90e501	0.07074929
65	0xbd65ba2f	-0.05608576
66	0xbe2d01d3	-0.16895227
67	0x3e65c8bf	0.2243986
68	0xbddfb308	-0.109228194
69	0x3c340782	0.010988118
70	0x3cd6c333	0.026216125
71	0xbea1a905	-0.31574264
72	0xbe140df4	-0.14458448
73	0x3e8947ba	0.26812536
74	0xbe0a8512	-0.13527325
75	0xbe56734e	-0.20942423
76	0xbe28d2c8	-0.16486657
77	0xbde1e303	-0.11029627
78	0x3df604fd	0.1201267
79	0x3d9a1224	0.07522991
80	0xbda00db1	-0.078151114
81	0xbe812a61	-0.25227645
82	0xbde30ca9	-0.11086399
83	0xbd31d97c	-0.0434203
84	0x3d4e7d44	0.05041243
85	0xbddbd59d	-0.10734103
86	0x3b364eca	0.0027817958
87	0xbe6d6c34	-0.23185807
88	0x3e4f532c	0.20246571
89	0xbe894397	-0.2680938
90	0xbe5ac346	-0.21363553
91	0x3ea1a113	0.31568202
92	0xbe66cdb7	-0.22539411
93	0xbe1e4a4e	-0.15458032
94	0x3e1bf57c	0.15230364
95	0xbe903434	-0.28164828
96	0xbe8e3fc9	-0.2778304
97	0x3e176f96	0.1478866
98	0xbe763f79	-0.2404765
99	0xbdd0a705	-0.101881064

rnn_cell_list.0.h2h.bias f4 [10]
0	0xbfbf247f	-1.4933013
1	0xbfb2092e	-1.3909051
2	0x3f198fc4	0.59984994
3	0x3f7ac7d1	0.97961146
4	0xbf7848c6	-0.96986043
5	0x3da4a2d6	0.08038871
6	0xbe9f4b27	-0.31112024
7	0x3fc75fb9	1.5576087
8	0x3dd1ed80	0.10250378
9	0x3fb1db03	1.3894962

rnn_cell_list.1.x2h.weight f4 [10, 10]
0	0xbf0cf4ee	-0.55061233
1	0xbf94fe9d	-1.1640202
2	0xbee12779	-0.43975428
3	0x3f89eb27	1.0774888
4	0x3e7d5bd7	0.24742065
5	0xbe87d650	-0.26530695
6	0xbe124d23	-0.14287238
7	0xbe2ac2a0	-0.16675806
8	0xbf29eb4e	-0.6637467
9	0x3dd6908b	0.10476788
10	0x3bb77a9a	0.005599332
11	0xbf9ca8ed	-1.2239052
12	0xbeb9eb7d	-0.36312476
13	0x3e03dbc1	0.12876798
14	0xc003aa8b	-2.057284
15	0x3df4093f	0.11915826
16	0x3e81b5fb	0.25334153
17	0x3f6b0e35	0.91818553
18	0xbf08004b	-0.5312545
19	0xbf235d20	-0.6381397
20	0xbf1a96c0	-0.60386276
21	0xc05a3ecc	-3.4100828
22	0xbfa61343	-1.2974628
23	0x3c9af742	0.01891673
24	0xc0e18f1f	-7.048721
25	0x3e85e839	0.26153734
26	0xbe941e6e	-0.28929466
27	0x3efce616	0.49394292
28	0xbfbf61c2	-1.4951708
29	0x3f3ab040	0.72925186
30	0xbe86e524	-0.26346695
31	0xc00fba6d	-2.2457535
32	0xbf9a78e1	-1.2068139
33	0x3ef7bccb	0.48386225
34	0xbed64a3c	-0.4185351
35	0xbd3e5502	-0.04646779
36	0xba8cd98e	-0.0010745989
37	0x3f3c192a	0.734759
38	0xbff45d43	-1.9090961
39	0xbff104ef	-1.8829631
40	0x3e899c4b	0.26877055
41	0x3edadd42	0.4274693
42	0xc0340d15	-2.8132985
43	0xbe6c103d	-0.2305307
44	0x3f020138	0.5078311
45	0xbe0006dd	-0.12502618
46	0xbe367dfd	-0.17821498
47	0xbe96caad	-0.29451504
48	0x3dfda238	0.123844564
49	0x3f37eef0	0.71848965
50	0x3f4c564a	0.79819167
51	0x3fbf4206	1.4942024
52	0xbb97ab1a	-0.004628551
53	0x3c6bde9e	0.014396338
54	0xbf1c0094	-0.6093838
55	0xbe6b7e62	-0.2299743
56	0xbe7238d8	-0.23654497
57	0xbf3b3e4b	-0.73141927
58	0x3efb47d8	0.4907825
59	0x3d4bdead	0.049772907
60	0xbdbf4ebb	-0.093411885
61	0x3e1f280e	0.15542623
62	0xbe96e29e	-0.2946977
63	0xbc26bf92	-0.01017751
64	0xbe15fb50	-0.1464665
65	0xbe96ad6e	-0.2942919
66	0xbe1db539	-0.15401162
67	0x3ddf6fc1	0.10909987
68	0xbd4e402b	-0.050354164
69	0x3c8e90f0	0.017403096
70	0x3e1d86a3	0.15383391
71	0x3f8417e4	1.0319791
72	0xbe21a23a	-0.15784541
73	0xbf3a94f8	-0.7288356
74	0xc067ba02	-3.620728
75	0xbb848d74	-0.004045183
76	0x3e272ddc	0.16326088
77	0x3f40d472	0.75324166
78	0xbe2a7913	-0.16647749
79	0xbd35b615	-0.0443631
80	0xbec5a2b6	-0.386007
81	0x3dd7e0d9	0.10540933
82	0xbebca662	-0.3684569
83	0x3de5d16f	0.11221587
84	0xbe66beee	-0.22533771
85	0xbbfff3a8	-0.0078110285
86	0xbe7138d9	-0.23556842
87	0xbdb521f2	-0.08844365
88	0xbed6a13d	-0.4191989
89	0x3e630207	0.22168742
90	0xbde147e6	-0.11000042
91	0xbd3756fe	-0.044760697
92	0xbf26cdec	-0.6515796
93	0xbe04acf1	-0.12956597
94	0x3f42587e	0.7591628
95	0x3cb3e598	0.021960065
96	0xbdefa11f	-0.11700653
97	0xbe30f48f	-0.17280792
98	0x3e9de9de	0.3084249
99	0x3ed224cd	0.41043702

rnn_cell_list.1.x2h.bias f4 [10]
0	0x3e9886b7	0.2979028
1	0x3d41137c	0.047137722
2	0xbea62097	-0.3244674
3	0x3ee01e35	0.43773046
4	0xbfa994b3	-1.3248504
5	0xbed847c4	-0.42242253
6	0xbe178dbf	-0.14800166
7	0xbe9edc9e	-0.31027693
8	0xbec375ef	-0.38175914
9	0xbf120f6c	-0.5705478

rnn_cell_list.1.h2h.weight f4 [10, 10]
0	0xbe6b43f6	-0.22975144
1	0x3e6b77e4	0.22994953
2	0xbe5c3e04	-0.21508032
3	0xbe731d3b	-0.2374162
4	0xbdf431af	-0.11923539
5	0xbe583bc2	-0.21116546
6	0xbd908706	-0.07057004
7	0xbe9903a7	-0.298856
8	0x3e265cc6	0.16246328
9	0xbe9fd722	-0.3121882
10	0xbe9eef33	-0.3104187
11	0x3e2798ce	0.16366884
12	0x3e3f1097	0.18658672
13	0x3e805b14	0.25069487
14	0x3dbf5281	0.09341908
15	0xbe8921f3	-0.26783714
16	0x3e205695	0.15658028
17	0xbe788c1c	-0.24272197
18	0x3e943126	0.28943747
19	0x3e3ff6b4	0.18746454
20	0x3d81da75	0.063404955
21	0xbd15bc7f	-0.036556717
22	0xbe97ab00	-0.2962265
23	0x3d20602b	0.039154213
24	0x3ab83b79	0.001405581
25	0xbe580232	-0.21094587
26	0x3e45acd0	0.19304204
27	0xbd8581a4	-0.065188676
28	0xbc16ae18	-0.009196781
29	0xbe772b5e	-0.24137637
30	0xbe2db8c3	-0.16965012
31	0x3e0c9c7c	0.13731569
32	0xbd568112	-0.052369185
33	0xbd01a082	-0.031647213
34	0x3e852970	0.26008177
35	0x3bc98bb9	0.0061506894
36	0xbe5da59b	-0.21645205
37	0xbe6bbe70	-0.23021865
38	0xbdedc561	-0.11609913
39	0x3dbd851b	0.092539035
40	0x3e2fe38b	0.17176645
41	0x3dce3ab8	0.100697935
42	0x3e90a291	0.28249028
43	0xbe822535	-0.25419012
44	0xbde89f0b	-0.1135846
45	0x3e64356b	0.22286002
46	0x3e17a595	0.14809258
47	0x3e94e9a8	0.29084516
48	0xbdc43c51	-0.09581817
49	0xbd9e0bf0	-0.07717121
50	0xbe2fee53	-0.17180757
51	0xbacccc09	-0.0015624772
52	0x3e60aa7f	0.21940039
53	0x3d9c0327	0.07617789
54	0xbe92212d	-0.28540936
55	0xbc98a9f5	-0.01863573
56	0x3e66aaf8	0.22526157
57	0x3d62389c	0.05522977
58	0x3d530eea	0.051527895
59	0xbe256d27	-0.1615492
60	0xbd8368a5	-0.06416444
61	0xbe59e541	-0.2127886
62	0x3ea083f1	0.31350663
63	0x3e86fd28	0.26365018
64	0xbe38f41c	-0.1806187
65	0xbe8ed809	-0.27899197
66	0xbaad87ad	-0.0013239287
67	0x3e735ec5	0.2376662
68	0x3d4cc120	0.049988866
69	0x3e45d63a	0.19320002
70	0xbe71f9d9	-0.23630466
71	0x3e4d5051	0.2005017
72	0xbe9e524f	-0.3092217
73	0xbe863979	-0.26215723
74	0x3e8b9dfb	0.27268967
75	0xbd8dfd3c	-0.06933066
76	0xbe2f335b	-0.17109434
77	0xbe634f55	-0.22198232
78	0x3e255285	0.1614476
79	0x3d2f1a83	0.042749893
80	0x3e8cce72	0.27501255
81	0x3e815b3d	0.25264922
82	0x3e9e777e	0.3095054
83	0x3d52cda7	0.051465657
84	0xbe963dc0	-0.29343987
85	0x3e4cd761	0.20004036
86	0x3e3e679d	0.18594213
87	0xbd2aed11	-0.04172999
88	0x3e84fdb8	0.25974822
89	0xbcbaeebf	-0.022818921
90	0xbcde979c	-0.027171902
91	0xbe93e851	-0.2888818
92	0xbe15706f	-0.14593671
93	0x3e2716a6	0.16317233
94	0xbd9bc71c	-0.076063365
95	0x3cf974da	0.030451227
96	0x3d53c99b	0.051705938
97	0x3e935cb4	0.28781664
98	0x3e97adc0	0.29624748
99	0xbe952b41	-0.29134563

rnn_cell_list.1.h2h.bias f4 [10]
0	0x3eddb9af	0.43305728
1	0xbba50241	-0.005035669
2	0x3db560ba	0.0885634
3	0x3f875e81	1.0575715
4	0xbf5935b0	-0.84847546
5	0xbeed70f0	-0.46375227
6	0xbea4f80e	-0.322205
7	0xbe9a9c45	-0.3019735
8	0xbe8792a2	-0.2647906
9	0xbf2d33fe	-0.6765746

rnn_cell_list.2.x2h.weight f4 [10, 10]
0	0xbe4639cf	-0.1935799
1	0xbe440041	-0.19140722
2	0x3e607de4	0.21923023
3	0xbe7efc42	-0.24900916
4	0x3e37a734	0.17934877
5	0x3d892c71	0.0669793
6	0xbde40f14	-0.111356884
7	0x3d95d5cc	0.07316169
8	0x3e9763a5	0.2956821
9	0xbe868e90	-0.26280642
10	0x3d8e2130	0.06939924
11	0x3e6d9f92	0.23205402
12	0xbe19eac8	-0.15030968
13	0xbc875e5f	-0.016524492
14	0x3e8cb903	0.27484903
15	0xbda10ef6	-0.07864182
16	0x3d94c475	0.07264034
17	0xbdb54991	-0.08851922
18	0x3d963d39	0.07335896
19	0x3e9df34b	0.3084968
20	0xbe961d9c	-0.29319465
21	0xbe82f6fb	-0.25579056
22	0xbe32000c	-0.1738283
23	0x3df33417	0.1187517
24	0xbe8f4436	-0.27981728
25	0xbe3db7df	-0.18527173
26	0xbd96ace9	-0.07357199
27	0xbe0346d4	-0.12819988
28	0xbe9241ed	-0.28565922
29	0x3e5189e0	0.20462751
30	0xbea1a5ff	-0.31571957
31	0xbd76abcd	-0.060222436
32	0x3e915a8f	0.28389403
33	0xbe3a0166	-0.18164596
34	0x3e436e4e	0.19085047
35	0xbe8535a5	-0.2601749
36	0x3e949eb2	0.29027325
37	0xbe98908a	-0.29797775
38	0xbdbe8d05	-0.09304241
39	0x3e2b7de4	0.16747242
40	0xbbdb9e22	-0.0067022005
41	0x3e68687c	0.22696108
42	0xbe1711e8	-0.14752924
43	0xbe92aa30	-0.28645468
44	0x3e7b3d00	0.24534988
45	0x3e5778e5	0.21042211
46	0x3bd0727d	0.0063613043
47	0xbe572b0d	-0.21012516
48	0x3de0bc6d	0.10973439
49	0xbc479658	-0.012181841
50	0x3e88b0f0	0.26697493
51	0xbe44f7b9	-0.19235124
52	0xbd111294	-0.035418108
53	0x3df9474c	0.12171802
54	0xbdde5b36	-0.10857241
55	0x3da59c0b	0.080864035
56	0x3e60c52e	0.21950218
57	0xbe8348a8	-0.2564137
58	0xbdb56741	-0.08857585
59	0xbd9d9f88	-0.07696444
60	0xbe570ef0	-0.21001792
61	0x3b181698	0.0023206826
62	0x3d9dcd90	0.077052236
63	0x3e115592	0.14192799
64	0xbe2bdd0c	-0.16783541
65	0x3ddfd219	0.10928745
66	0xbe65ed64	-0.22453839
67	0xbe8e71e3	-0.27821264
68	0xbe9c8c62	-0.30575854
69	0x3e871621	0.2638407
70	0xbd8b3eef	-0.06799113
71	0xbe041834	-0.12899858
72	0x3e3526b1	0.17690541
73	0xbe0bf126	-0.1366621
74	0x3c818208	0.015809074
75	0xbe2f007b	-0.17090027
76	0x3dad853a	0.084726766
77	0xbe06a5e0	-0.13149214
78	0xbcb28680	-0.02179265
79	0x3da216cb	0.07914504
80	0x3e30e96b	0.17276542
81	0xbd4d472a	-0.050116695
82	0x3e110bca	0.14164653
83	0x3d01da24	0.031702176
84	0xbe04835a	-0.12940732
85	0xbea01014	-0.31262267
86	0x3e70fb62	0.23533395
87	0xbea0f566	-0.31437224
88	0xbe719a7f	-0.23594092
89	0xbdcf2159	-0.101137824
90	0x3e9bc5de	0.30424398
91	0x3e418e97	0.1890205
92	0xbe150a5d	-0.14554735
93	0xbdad1311	-0.08450902
94	0x3e406a0c	0.18790454
95	0xbe42e6d0	-0.1903336
96	0x3e37fd32	0.1796768
97	0x3e9bc015	0.30419984
98	0xbe5cdbfe	-0.21568295
99	0x3d331246	0.0437186

rnn_cell_list.2.x2h.bias f4 [10]
0	0xbe396b93	-0.18107443
1	0xbe9b1468	-0.30289006
2	0xbd3e6842	-0.046486147
3	0xbe90dcaf	-0.28293368
4	0xbe1315c3	-0.1436377
5	0x3e81cd88	0.2535212
6	0xbe33db93	-0.1756423
7	0x3d9b31ca	0.07577856
8	0xbbb6843c	-0.005569963
9	0x3cdafab9	0.026730882

rnn_cell_list.2.h2h.weight f4 [10, 10]
0	0x3d1e098c	0.038583323
1	0x3d937ebe	0.072019085
2	0x3e7130f7	0.23553835
3	0xbe833def	-0.2563319
4	0x3dd24e8c	0.10268888
5	0x3d5b0297	0.053469267
6	0x3e350070	0.17675948
7	0xbe27adfe	-0.16374967
8	0x3e8469db	0.2586201
9	0xbc11431f	-0.008866101
10	0x3e116064	0.14196926
11	0x3e95d7ae	0.29266113
12	0x3e15e23a	0.1463708
13	0xbda6266a	-0.08112796
14	0xbe2f98e7	-0.17148171
15	0xbe163225	-0.14667566
16	0xbd8fd5d6	-0.07023208
17	0x3d917c84	0.071038276
18	0xbea0e297	-0.31422874
19	0xbd52e50d	-0.05148797
20	0xbd408233	-0.046999168
21	0x3aec8c5a	0.0018047199
22	0x3db52265	0.08844451
23	0x3e7b51df	0.2454295
24	0x3de4e617	0.11176699
25	0x3e49b31d	0.19697233
26	0x3d868e4c	0.0657011
27	0xbe4910cf	-0.19635318
28	0x3e6bdb92	0.23032978
29	0xbe1e323b	-0.15448849
30	0x3d3103cb	0.043216508
31	0x3aee3928	0.0018174993
32	0xbdda2e2f	-0.1065334
33	0x3e19cb0c	0.15018862
34	0xbe05b08d	-0.1305563
35	0xbdf40cd8	-0.11916512
36	0x3e1bc913	0.15213422
37	0xbdcfb627	-0.10142165
38	0x3e751385	0.23933227
39	0x3d9172bb	0.07101961
40	0xbdf4397d	-0.119250275
41	0x3e5b3f5d	0.2141089
42	0x3d7aa7ac	0.06119506
43	0xbd3361ed	-0.04379456
44	0xbe5df056	-0.21673712
45	0x3e642eed	0.22283526
46	0x3e089aa1	0.13340236
47	0xbe5faf92	-0.21844319
48	0xbda27957	-0.079333
49	0xbe770cf8	-0.24126041
50	0xbe578915	-0.21048386
51	0x3e431dc4	0.19054323
52	0x3ea15c44	0.31515706
53	0x3d859cf4	0.06524077
54	0x3deaf674	0.114727885
55	0xbe4a7b35	-0.19773562
56	0x3e9fa2f2	0.31179005
57	0x3db4e87c	0.088334054
58	0xbe09ec7d	-0.1346912
59	0xbe965d5d	-0.29368106
60	0xbe8cb05f	-0.2747831
61	0x3e70380d	0.23458882
62	0xbcbcc4fa	-0.023043144
63	0x3e7c53e5	0.24641378
64	0xbc24c8a0	-0.010057598
65	0x3d7e01cc	0.062013432
66	0x3d34a1f2	0.044099756
67	0x3d1ff326	0.039050244
68	0xbe2c7491	-0.16841342
69	0x3e949dac	0.29026544
70	0x3e50838e	0.20362684
71	0xbde69660	-0.112591505
72	0xbe9a314c	-0.30115736
73	0x3d4fc115	0.050721247
74	0xbe964b6d	-0.2935442
75	0x3e6d61b5	0.23181804
76	0x3e8ac5c3	0.27104005
77	0xbd95adfd	-0.07308576
78	0x3d36edd0	0.04466039
79	0xbe55beb0	-0.20873523
80	0xbdd27f3f	-0.102781765
81	0xbc5d0ff6	-0.013492575
82	0x3e8a23e9	0.26980522
83	0x3e88ca72	0.26716954
84	0xbe51cde7	-0.20488702
85	0xbdedbdfc	-0.11608502
86	0x3e883cc4	0.2660886
87	0xbdacf099	-0.08444328
88	0xbdf59497	-0.11991232
89	0xbe9128a8	-0.2835133
90	0xbda89946	-0.082323596
91	0xbcce5507	-0.025187029
92	0xbe88ba22	-0.26704508
93	0x3de7d721	0.113203295
94	0xbe8d322f	-0.2757735
95	0xbe8bb082	-0.27283102
96	0xbc9b4bae	-0.018956985
97	0x3dad36a5	0.08457688
98	0x3dbd3f4d	0.09240589
99	0x3da28d43	0.079371

rnn_cell_list.2.h2h.bias f4 [10]
0	0xbe71862d	-0.2358634
1	0xbbc585c5	-0.0060279095
2	0xbdf6be00	-0.120479584
3	0xbd4cb2db	-0.049975257
4	0xbea1155e	-0.31461614
5	0x3d9916e6	0.07475071
6	0xbdb4f4c7	-0.0883575
7	0xbe676aac	-0.22599286
8	0xbd655be8	-0.05599585
9	0x3e638687	0.22219287

fc.weight f4 [12, 10]
0	0xbeec26cc	-0.4612335
1	0x3ea66a2d	0.3250288
2	0x3d86c5a4	0.06580666
3	0xbda972d1	-0.082738526
4	0x3cffee6c	0.031241618
5	0x3cbdcfc8	0.023170367
6	0xbeb9e06c	-0.36304033
7	0x3d085148	0.03328064
8	0x3e2666f1	0.16250207
9	0xbc28d4e1	-0.010304661
10	0xbed1efa6	-0.4100315
11	0x3ee50a08	0.44734216
12	0xbc045859	-0.008077704
13	0xbe01b1af	-0.12665437
14	0x3b276e16	0.0025547794
15	0x3cfd0676	0.03088687
16	0xbe4f105b	-0.20221083
17	0x3d21a487	0.039463546
18	0x3ddd819a	0.10815735
19	0x3c87c5e8	0.016573861
20	0xbeb6e3a7	-0.3572056
21	0x3f0f1914	0.5589764
22	0xbd9b703b	-0.07589766
23	0xbe3203b6	-0.17384228
24	0xbcd3a233	-0.025834179
25	0x3d20013f	0.03906369
26	0xbce6a0c0	-0.028152823
27	0x3d3b4d88	0.045728236
28	0x3dc46561	0.09589649
29	0x3d32138f	0.043475684
30	0xbe9c13ea	-0.30483943
31	0x3f265f53	0.64989203
32	0xbe06623c	-0.13123411
33	0xbe624aaf	-0.22098802
34	0xbd56ec8d	-0.052471686
35	0x3d44560c	0.047933623
36	0xbe254f4e	-0.16143534
37	0x3d5af436	0.053455554
38	0x3dc8cf3c	0.09805152
39	0x3d8d4ad7	0.0689904
40	0xbe82076a	-0.2539628
41	0x3f392393	0.72319907
42	0xbe2d307e	-0.1691303
43	0xbe8637e5	-0.2621452
44	0xbd9c305d	-0.07626412
45	0x3d699bb3	0.057033252
46	0xbe1ac2b1	-0.15113331
47	0x3d7f94a1	0.062397603
48	0x3db8254b	0.08991488
49	0x3dbc4738	0.091932714
50	0xbe53d28f	-0.2068579
51	0x3f3af5db	0.73031396
52	0xbe49c346	-0.19703397
53	0xbe995ff8	-0.2995603
54	0xbdcbe89d	-0.09956477
55	0x3d87c679	0.066296525
56	0xbe19fa14	-0.15036803
57	0x3d934962	0.07191731
58	0x3dd55fba	0.10418649
59	0x3de9b460	0.11411357
60	0xbe28dda9	-0.16490807
61	0x3f3b8a21	0.73257643
62	0xbe5de298	-0.2166847
63	0xbea8fc9c	-0.33005226
64	0xbdf77c78	-0.120842874
65	0x3d992694	0.07478061
66	0xbd8b740a	-0.06809242
67	0x3da59b67	0.08086281
68	0x3dee3030	0.11630285
69	0x3e098209	0.1342851
70	0xbe032062	-0.12805322
71	0x3f1e41c0	0.61819077
72	0xbe66a81d	-0.22525068
73	0xbeb3700c	-0.35046422
74	0xbe0f0db4	-0.13970071
75	0x3da984f0	0.08277309
76	0xbd6973d0	-0.056995213
77	0x3db5c75e	0.08875917
78	0x3dd08a12	0.10182585
79	0x3e1bb813	0.15206937
80	0xbdc83a15	-0.09776703
81	0x3ee9c049	0.45654514
82	0xbe631a1c	-0.22177929
83	0xbeb8903f	-0.3604755
84	0xbe1f6dc6	-0.15569219
85	0x3db749ee	0.08949648
86	0xbe3f70a3	-0.18695311
87	0x3dc1d818	0.09465045
88	0x3d8b2def	0.067958705
89	0x3e2af822	0.16696218
90	0xbd97ed7c	-0.074183434
91	0x3ef2ea19	0.47444227
92	0xbe59d913	-0.21274213
93	0xbeb9bd67	-0.36277315
94	0xbe2e99a8	-0.17050803
95	0x3dc25a02	0.09489824
96	0xbd88c897	-0.066788845
97	0x3dc859ea	0.09782775
98	0x3d70ea8d	0.058817435
99	0x3e386f8d	0.18011303
100	0xbd67a1d2	-0.05655081
101	0x3f0cbe45	0.5497783
102	0xbe4ca7b3	-0.19985847
103	0xbeb71ae7	-0.35762712
104	0xbe3b4311	-0.18287303
105	0x3dcac248	0.099003375
106	0x3e4c96f7	0.19979464
107	0x3dc94093	0.0982677
108	0x3e2c82d1	0.16846777
109	0x3e432e55	0.19060643
110	0xbd31fea3	-0.04345573
111	0x3f0a53f5	0.5403436
112	0xbe3a1954	-0.18173724
113	0xbeb043c6	-0.34426707
114	0xbe452d4f	-0.19255565
115	0x3dd17316	0.10227029
116	0x3e0cb0fb	0.13739388
117	0x3dc5751a	0.09641476
118	0x3e346118	0.17615163
119	0x3e4b3010	0.19842553

fc.bias f4 [12]
0	0x3f78abf9	0.9713741
1	0x3f769e84	0.96335626
2	0x3f745a35	0.95450145
3	0x3f71df23	0.94481105
4	0x3f6f59b3	0.93496245
5	0x3f6ce4fd	0.9253691
6	0x3f6ab47b	0.9168164
7	0x3f68bd9a	0.9091431
8	0x3f6727e0	0.9029522
9	0x3f65ff7d	0.8984297
10	0x3f653b6e	0.8954381
11	0x3f64b85c	0.8934381
