homework2/rnn1.pt (torch, 8822 bytes, 14 tensors)

rnn_cell_list.0.x2h.weight f4 [10, 2]
1.4677882 -0.7567049 -0.40883723 0.024292639 1.0784274 -0.5766024 -0.09235479 -0.027551478
-1.0138295 -0.20717844 -0.3064204 -0.65136194 0.10924522 -0.07245043 -3.3576996 0.050635345
3.2943501 0.030268094 -0.047344312 -0.10011495
00000000: 7ce0 bb3f 6ab7 41bf 1d53 d1be 5b01 c73c
00000010: e909 8a3f 379c 13bf 8224 bdbd a3b3 e1bc
00000020: 2ac5 81bf 9626 54be 22e3 9cbe a8bf 26bf
00000030: f5bb df3d e460 94bd 8de4 56c0 0267 4f3d
00000040: a2d6 5240 cbf4 f73c 1cec 41bd 1109 cdbd

rnn_cell_list.0.x2h.bias f4 [10]
1.2309382 0.09465293 0.9331151 -0.24630837 2.0054739 -0.13356335 -0.38130346 0.91618615
-1.1290308 -0.69827235
00000000: 628f 9d3f 65d9 c13d a2e0 6e3f 4338 7cbe
00000010: af59 0040 d5c4 08be 353a c3be 2d8b 6a3f
00000020: 1584 90bf fac1 32bf

rnn_cell_list.0.h2h.weight f4 [10, 10]
0.11257024 -0.11982203 0.16716406 -0.30762547 -0.17272395 0.0030675414 0.09547275 -0.18239233
-0.23478338 -0.049161106 -0.294946 -0.2163536 0.043348037 0.28655714 -0.076023065 -0.0026798625
-0.055256948 0.106041 -0.016054634 0.30497915 -0.30967283 -0.24383672 -0.079604834 0.07364357
-0.059185307 0.14220412 0.046161875 -0.012764075 -0.23585255 0.13590837 -0.022760982 -0.1280791
-0.019856254 -0.28566703 0.24584161 -0.054681763 -0.14791009 -0.1813008 -0.10017877 -0.007439522
0.22863826 0.27825984 0.15541057 0.15843348 0.12975599 0.07968939 -0.1375458 -0.20732622
-0.042695757 -0.18627666 -0.021287432 0.07235557 -0.30085173 -0.11087937 -0.122447684 0.22503701
-0.028924149 -0.05058629 0.011219429 0.30302954 -0.26227322 0.023701377 0.10760468 -0.27436432
-0.29339984 -0.10090508 0.11604642 0.2025212 0.0026477065 -0.13402863 0.23417567 0.045600373
0.20681946 0.2269495 -0.24076802 0.006606638 -0.24233577 -0.12562594 0.2244738 0.11078286
0.030306282 0.012676617 -0.25178203 0.1244473 0.287325 0.0030564584 -0.18256909 0.09440098
-0.16358142 0.2943712 0.05636566 -0.014924921 0.016538667 0.17310655 0.12800008 0.13743228
0.15906024 -0.031279664 -0.15610687 0.14326519
00000000: 3a8b e63d 4165 f5bd 0e2d 2b3e 1681 9dbe
00000010: 8cde 30be ce08 493b 3887 c33d 0ec5 3abe
00000020: 0e6b 70be 285d 49bd 2a03 97be cc8b 5dbe
00000030: b68d 313d 9eb7 923e fbb1 9bbd a2a0 2fbb
00000040: 1c55 62bd 062c d93d 0285 83bc 3a26 9c3e
00000050: 708d 9ebe 55b0 79be dc07 a3bd 71d2 963d
00000060: 4b6c 72bd f59d 113e 3c14 3d3d 6920 51bc
00000070: 5583 71be 902b 0b3e 3d75 babc 2b27 03be
00000080: 95a9 a2bc f342 92be e7bd 7b3e fcf9 5fbd
00000090: be75 17be eba6 39be 872a cdbd 3cc7 f3bb
000000a0: 2620 6a3e 1378 8e3e f323 1f3e 633c 223e
000000b0: c1de 043e 3134 a33d ced8 0cbe 534d 54be
000000c0: bfe1 2ebd 4fbf 3ebe fb62 aebc 282f 943d
000000d0: 3d09 9abe b914 e3bd dac5 fabd 1a70 663e
000000e0: 56f2 ecbc 9233 4fbd b2d1 373c b026 9b3e
000000f0: ad48 86be 6429 c23c d85f dc3d 7b79 8cbe
00000100: 8138 96be 53a7 cebd bfa9 ed3d b861 4f3e
00000110: 2585 2d3b cd3e 09be bfcb 6f3e 75c7 3a3d
00000120: 7bc8 533e 7365 683e e48b 76be 7f7c d83b
00000130: de26 78be 16a4 00be 76dc 653e 20e2 e23d
00000140: e144 f83c 96b1 4f3c 93e9 80be 3ade fe3d
00000150: 431c 933e dd4e 483b 64f3 3abe 4d55 c13d
00000160: e381 27be d2b7 963e aedf 663d a887 74bc
00000170: 197c 873c d842 313e 7412 033e 0cbb 0c3e
00000180: b0e0 223e 1b1f 00bd 7bda 1fbe 1cb4 123e

rnn_cell_list.0.h2h.bias f4 [10]
0.4472973 -0.59436446 0.051534068 -0.15443595 1.5758766 0.18414329 -0.30733666 1.3817246
-1.9064144 -0.04961325
00000000: 2704 e53e 4528 18bf 6315 533d 7524 1ebe
00000010: 53b6 c93f 0f90 3c3e 3b5b 9dbe 5adc b03f
00000020: 6305 f4bf 4337 4bbd

rnn_cell_list.1.x2h.weight f4 [10, 10]
-2.4683406 -0.20964034 -0.29718485 0.011329882 0.23924293 -0.11728659 0.30699494 0.3256587
-1.2389607 0.18559015 0.022569515 0.0670545 0.17892146 -0.26715422 -0.24289942 0.15582882
-0.19178325 0.03825763 -0.21317053 -0.09397447 -1.0228425 0.23007953 -2.6135774 -0.10829986
0.015884772 0.28110638 -0.14534706 -0.20043012 -1.9294503 -0.17185831 -0.4175129 0.24170282
-0.40990368 0.13253044 0.89753884 0.31114003 0.18810807 -0.20798011 -0.6613529 -0.022083221
-0.09007782 0.090882845 -0.21693948 0.27160236 -0.09411732 -0.003349781 -0.085317366 -0.21343717
-0.19184744 0.2551965 -0.16090149 0.028034266 -0.27456132 0.08665819 -0.100106746 -0.19172226
0.3070626 -0.13219713 0.016162882 -0.30665857 0.070400774 -0.29898754 -0.30129537 -0.1990574
-0.2735457 -0.12582201 -0.118590124 -0.26458272 -0.29845792 -0.165353 -0.25817153 -0.071537994
-0.30800074 0.0071771867 -0.058859263 0.13488278 -0.16585891 -0.017219143 -0.044502143 -0.06945344
-1.4600377 -0.17408724 -0.22598824 0.3113293 -0.69769084 0.29713574 -0.21886088 0.18258949
-0.7015321 0.13936043 1.1736385 -0.12155832 0.07478291 0.1402803 -1.8706148 0.25933963
-0.24917847 0.26495442 -0.5198518 0.30538696
00000000: 4bf9 1dc0 f5ab 56be 9d28 98be f8a0 393c
00000010: 19fc 743e f433 f0bd 712e 9d3e bdbc a63e
00000020: 4496 9ebf 580b 3e3e b4e3 b83c df53 893d
00000030: 3037 373e 70c8 88be a0ba 78be 9791 1f3e
00000040: d462 44be 08b4 1c3d 6049 5abe b075 c0bd
00000050: 81ec 82bf f899 6b3e da44 27c0 51cc ddbd
00000060: c820 823c 2ded 8f3e dcd5 14be 8e3d 4dbe
00000070: 3af8 f6bf a0fb 2fbe 40c4 d5be f280 773e
00000080: e5de d1be 0fb6 073e 1bc5 653f bf4d 9f3e
00000090: 679f 403e bdf8 54be 6c4e 29bf dfe7 b4bc
000000a0: b87a b8bd c920 ba3d 6225 5ebe 770f 8b3e
000000b0: 95c0 c0bd 0088 5bbb dfba aebd 468f 5abe
000000c0: a873 44be 1ea9 823e 5cc3 24be 1ea8 e53c
000000d0: 4d93 8cbe d979 b13d c404 cdbd d752 44be
000000e0: 4f37 9d3e af5e 07be 0568 843c 5a02 9dbe
000000f0: 482e 903d e514 99be 6343 9abe b4d5 4bbe
00000100: 2f0e 8cbe 7cd7 00be 61df f2bd 6377 87be
00000110: 7acf 98be 4c52 29be 0f2f 84be 8382 92bd
00000120: 46b2 9dbe 9b2e eb3b 6916 71bd b61e 0a3e
00000130: ebd6 29be 290f 8dbc e147 36bd 9b3d 8ebd
00000140: 84e2 babf ed43 32be 7669 67be 8e66 9f3e
00000150: de9b 32bf 2d22 983e 111d 60be bdf8 3a3e
00000160: 9c97 33bf 80b4 0e3e c939 963f 92f3 f8bd
00000170: c827 993d a4a5 0f3e 4e70 efbf 2ac8 843e
00000180: a428 7fbe 1ba8 873e 0215 05bf ae5b 9c3e

rnn_cell_list.1.x2h.bias f4 [10]
0.046304245 -0.043716297 0.20879702 -0.27684942 0.17912932 -0.020930706 0.09383991 0.21447857
0.51846147 0.24300578
00000000: 85a9 3d3d dc0f 33bd e3ce 553e 35bf 8dbe
00000010: ad6d 373e df76 abbc 242f c03d 45a0 5b3e
00000020: e4b9 043f 82d6 783e

rnn_cell_list.1.h2h.weight f4 [10, 10]
0.25907865 0.2634801 -0.16549708 -0.18033157 0.2370171 0.25506482 0.26130632 0.20415656
0.23664705 -0.08718097 -0.13909218 -0.15446347 0.23500597 -0.008893016 -0.056115728 0.11224077
0.14352545 -0.2452414 -0.025334423 0.057930477 0.12217849 -0.058566205 0.26274562 0.3151747
0.2278514 0.26318157 -0.19334267 0.20450854 -0.14264876 -0.05376308 -0.2407075 -0.118335664
-0.15801948 -0.16585201 0.08370679 -0.26423702 0.018282807 -0.13861044 0.19729991 0.096542604
-0.20605148 -0.149188 0.28605327 -0.25417823 -0.19621792 -0.010481656 -0.07905287 0.22364798
-0.2570338 0.11616822 0.20769954 -0.173837 -0.06151436 -0.18304065 -0.24892959 -0.047084928
-0.071718596 0.0931448 0.21513012 0.26937804 0.2802631 0.10242074 0.10273641 0.21619624
0.16291572 -0.28801435 0.058952413 -0.051981278 -0.1538758 0.07260399 -0.23490763 -0.09652703
0.06934906 0.28663433 -0.059603445 0.034970794 0.28397056 -0.0057173967 0.1126957 -0.14910577
0.12913384 0.19759522 0.09756363 0.19181529 -0.14683029 0.16718917 -0.15203463 0.13902469
-0.10801928 0.1606552 0.20731528 0.3097511 -0.031960327 -0.08488068 0.24411026 -0.277629
-0.20276523 0.079113975 -0.042034585 0.20480084
00000000: f5a5 843e dde6 863e 1178 29be d7a8 38be
00000010: 9cb4 723e db97 823e f1c9 853e 6b0e 513e
00000020: 9b53 723e f08b b2bd 2e6e 0ebe ac2b 1ebe
00000030: 68a5 703e 03b4 11bc 9bd9 65bd 7dde e53d
00000040: 56f8 123e 9020 7bbe 238a cfbc 8248 6d3d
00000050: b738 fa3d 1ee3 6fbd 9886 863e 945e a13e
00000060: e151 693e bcbf 863e 9ffb 45be b06a 513e
00000070: 8412 12be ad36 5cbd 077c 76be f859 f2bd
00000080: dccf 21be 1cd5 29be 776e ab3d 134a 87be
00000090: d3c5 953c e5ef 0dbe fd08 4a3e 21b8 c53d
000000a0: 29ff 52be bdc4 18be 9375 923e a623 82be
000000b0: 5aed 48be 40bb 2bbc 79e6 a1bd fa03 653e
000000c0: ef99 83be 9be9 ed3d 30af 543e 5402 32be
000000d0: 7bf6 7bbd 026f 3bbe 66e7 7ebe 20dc 40bd
000000e0: 33e1 92bd b3c2 be3d 124b 5c3e ebeb 893e
000000f0: a57e 8f3e f7c1 d13d 7867 d23d 8c62 5d3e
00000100: 61d3 263e 9e76 93be 1678 713d 52ea 54bd
00000110: 9e91 1dbe 67b1 943d a08b 70be f7af c5bd
00000120: e106 8e3d bcc1 923e be22 74bd 893d 0f3d
00000130: 9764 913e 0059 bbbb 01cd e63d 2faf 18be
00000140: a93b 043e 6756 4a3e 71cf c73d 3a6b 443e
00000150: ae5a 16be a333 2b3e f7ae 1bbe 7d5c 0e3e
00000160: 3639 ddbd cc82 243e 754a 543e b297 9e3e
00000170: d5e8 02bd ecd5 adbd 0af8 793e 6325 8ebe
00000180: b0a1 4fbe 8206 a23d 752c 2cbd 50b7 513e

rnn_cell_list.1.h2h.bias f4 [10]
-0.23628046 -0.13589084 0.4767401 -0.795528 -0.1846451 -0.06527314 -0.1353266 -0.27810603
0.2888618 0.4651949
00000000: 81f3 71be f826 0bbe 4717 f43e b9a7 4bbf
00000010: 9b13 3dbe edad 85bd 0e93 0abe ea63 8ebe
00000020: b2e5 933e 072e ee3e

rnn_cell_list.2.x2h.weight f4 [10, 10]
0.06710407 0.04164619 0.053663407 0.06449817 0.2109026 0.062379397 0.05407555 -0.27429157
0.06855949 -0.09936779 0.11337878 0.2484621 -0.22190481 -0.08135482 0.04814592 -0.0055569196
-0.16333847 0.037268594 -0.01191958 0.0055859084 -0.071955755 0.05643299 -0.25783855 -0.039827257
-0.017998004 0.07195142 0.20835558 0.3085772 -0.1339308 0.1507173 0.043934077 0.104765624
0.21976888 -0.27403066 0.17107911 0.06806777 0.16751091 0.22007611 -0.097266465 -0.0902179
0.17744422 -0.2150202 0.27864954 -0.046539787 0.057359666 0.15630218 -0.25988907 0.12912603
-0.20310356 -0.054670602 -0.2868991 0.2800774 -0.30985036 0.15081802 0.035663143 -0.032999452
-0.29449797 0.08405542 -0.27944508 0.01774415 -0.17240003 0.22532946 -0.12554826 0.034561176
0.05529736 0.3075471 -0.30546594 0.3147544 0.1637863 -0.07439258 -0.18685068 -0.16663362
-0.1908977 0.040083148 -0.19905782 -0.15053096 -0.19407374 -0.028091567 -0.20018364 0.15767558
0.3126307 -0.15205072 0.2712011 -0.2874696 -0.048810672 -0.28905895 -0.113323174 -0.16961122
-0.09334787 -0.2066929 0.20252818 0.03176298 0.021615963 -0.021720009 -0.055682134 -0.24544813
-0.017556682 0.11702919 -0.19782582 -0.2559714
00000000: dc6d 893d 3295 2a3d 29ce 5b3d 9e17 843d
00000010: daf6 573e 8a81 7f3d 537e 5d3d f26f 8cbe
00000020: eb68 8c3d 5781 cbbd 2233 e83d d96c 7e3e
00000030: 043b 63be 5b9d a6bd a834 453d d216 b6bb
00000040: 3342 27be f4a6 183d 584a 43bc ff09 b73b
00000050: 8a5d 93bd 4726 673d 6a03 84be e821 23bd
00000060: 8d70 93bc 445b 933d 2a5b 553e d5fd 9d3e
00000070: 2825 09be a355 1a3e 38f4 333d 5c8f d63d
00000080: 180b 613e bf4d 8cbe 5d2f 2f3e 1d67 8b3d
00000090: fb87 2b3e a25b 613e a433 c7bd 2ac4 b8bd
000000a0: f0b3 353e 412e 5cbe 27ab 8e3e 81a0 3ebd
000000b0: f8f1 6a3d ae0d 203e 2e10 85be 9d39 043e
000000c0: 61fa 4fbe 48ee 5fbd 70e4 92be 4e66 8f3e
000000d0: b5a4 9ebe 0a70 1a3e 8413 123d 6f2a 07bd
000000e0: 70c8 96be 3f25 ac3d 6d13 8fbe 2e5c 913c
000000f0: a289 30be c4bc 663e b98f 00be 0590 0d3d
00000100: 7c7f 623d d076 9d3e 0866 9cbe 7d27 a13e
00000110: 99b7 273e 235b 98bd c955 3fbe 01a2 2abe
00000120: b07a 43be 3a2e 243d d0d5 4bbe ca24 1abe
00000130: 44bb 46be 4920 e6bc f1fc 4cbe b575 213e
00000140: 2211 a03e 2fb3 1bbe dfda 8a3e 372f 93be
00000150: b3ed 47bd 89ff 93be fb15 e8bd 90ae 2dbe
00000160: 2b2d bfbd 4ea7 53be 8c63 4f3e e619 023d
00000170: f613 b13c 29ee b1bc f312 64bd c156 7bbe
00000180: 08d3 8fbc 00ad ef3d da92 4abe af0e 83be

rnn_cell_list.2.x2h.bias f4 [10]
0.068316005 -0.31407413 -0.26986757 0.28182095 0.068073496 0.0054004756 -0.16554628 0.054052178
0.12851374 -0.18160427
00000000: 43e9 8b3d 53ce a0be 152c 8abe d64a 903e
00000010: 1e6a 8b3d 79f6 b03b f784 29be d165 5d3d
00000020: 1b99 033e 78f6 39be

rnn_cell_list.2.h2h.weight f4 [10, 10]
0.05713273 -0.06847365 -0.14100622 -0.07826368 0.26631242 -0.15530607 -0.026586426 0.08890513
0.019390203 0.09078947 -0.2583947 0.27726853 0.2639323 0.30762717 0.10353959 0.27256843
-0.03147961 -0.18355758 0.12367745 -0.24365471 -0.17659554 0.289866 0.18336518 -0.05367351
0.26555362 0.12264451 0.15736371 0.11185253 -0.030281853 -0.19453697 0.0020019899 -0.121347226
-0.1570803 -0.017038796 -0.277493 -0.021177506 0.12918268 0.036397297 0.04119488 -0.23468181
-0.03954423 0.22876415 -0.036810495 -0.043863017 -0.019300822 0.27176133 -0.104532845 -0.14835338
0.17195946 -0.20793457 -0.104727775 -0.15636748 -0.049864464 0.2241693 -0.11351267 -0.022231296
0.062751696 -0.005459698 -0.051744316 -0.22961259 0.28459623 0.21965022 0.22683558 -0.017654432
-0.27386153 -0.28459984 0.008367931 0.12405732 0.21624449 -0.21094976 -0.16235027 0.27094406
-0.30081838 -0.065457456 -0.07358808 -0.25212768 0.1385044 -0.14061442 0.17049001 0.105787486
0.14099893 0.15456314 -0.27497312 0.11663141 0.026260495 -0.23796092 0.20972301 0.0874905
0.24454649 -0.003020759 -0.2056857 0.06446485 -0.039517086 0.037467785 0.11497164 0.19851504
0.12949923 -0.047692835 -0.1403942 0.11916116
00000000: 0204 6a3d ea3b 8cbd ef63 10be b548 a0bd
00000010: 1a5a 883e 8e08 1fbe c7cb d9bc e513 b63d
00000020: 34d8 9e3c d4ef b93d 4f4c 84be 24f6 8d3e
00000030: 2222 873e 4f81 9d3e 910c d43d 178e 8b3e
00000040: c3f0 00bd 85f6 3bbe 9a4a fd3d 9f80 79be
00000050: 76d5 34be 5169 943e 15c4 3b3e c1d8 5bbd
00000060: a5f6 873e 0b2d fb3d f423 213e f012 e53d
00000070: a611 f8bc b334 47be d133 033b e584 f8bd
00000080: a8d9 20be f294 8bbc 9013 8ebe 737c adbc
00000090: 7748 043e 5515 153d f6bb 283d 6e50 70be
000000a0: 21f9 21bd 2641 6a3e 9ac6 16bd b5a9 33bd
000000b0: c21c 9ebc 4d24 8b3e 5115 d6bd f3e9 17be
000000c0: 2416 303e cdec 54be 847b d6bd cc1e 20be
000000d0: ae3e 4cbd a38c 653e 5579 e8bd 681e b6bc
000000e0: f683 803d 44e7 b2bb d9f1 53bd 901f 6bbe
000000f0: 99b6 913e fdeb 603e 9647 683e 07a0 90bc
00000100: 9437 8cbe 12b7 91be a519 093c c411 fe3d
00000110: 326f 5d3e 3703 58be 263f 26be 2eb9 8a3e
00000120: de04 9abe 8f0e 86bd 59b5 96bd e116 81be
00000130: 19d4 0d3e 3afd 0fbe ef94 2e3e 1ca7 d83d
00000140: 0662 103e cd45 1e3e 47c9 8cbe 73dc ee3d
00000150: 4020 d73c 07ac 73be a1c1 563e 382e b33d
00000160: 656a 7a3e edf7 45bb 469f 52be 2606 843d
00000170: abdc 21bd d277 193d 4076 eb3d 8747 4b3e
00000180: 729b 043e 9059 43bd 7fc3 0fbe c40a f43d

rnn_cell_list.2.h2h.bias f4 [10]
-0.11284163 0.27759832 -0.27336055 0.15518789 -0.10171478 -0.2712963 0.070498146 0.037199795
0.095147125 0.27570152
00000000: 8319 e7bd 5e21 8e3e eaf5 8bbe 93e9 1e3e
00000010: d74f d0bd 59e7 8abe 5561 903d d05e 183d
00000020: 7fdc c23d c028 8d3e

fc.weight f4 [36, 10]
-0.8314718 0.13799196 -0.19687623 0.034776602 -0.18018617 -0.11544324 0.067962706 0.07959867
-0.15245493 0.049316935 -0.749956 0.065207295 -0.20193979 -0.004748679 0.3263352 0.12293064
0.08057587 0.042278226 -0.15833709 0.066815436 -0.6670584 -0.018985065 -0.20624028 -0.047198046
-0.07092205 0.08136334 -0.2605904 0.14101884 -0.17023179 0.09018278 -0.58401376 -0.16012453
-0.20712359 -0.086975195 -0.20998095 0.29495764 0.019127298 -0.12827171 -0.18701358 0.11805943
-0.50153255 0.24415617 -0.20314842 -0.121349014 0.23026851 0.17895031 -0.20893271 -0.13864361
-0.2050666 0.14681442 -0.42294762 -0.10171292 -0.19604687 -0.15610732 -0.017551381 -0.17294922
-0.08010537 -0.26923826 -0.22600697 0.17756279 -0.35064092 -0.13338336 -0.18643425 -0.19080496
0.3328548 0.2357271 0.20689522 -0.06758901 -0.2476051 0.20808727 -0.2850389 -0.16900279
-0.17395362 -0.22201873 -0.27120012 0.17965388 -0.01652243 -0.03974889 -0.26825193 0.23647927
-0.227345 -0.16070876 -0.15924023 -0.24746338 -0.16419996 -0.26163802 0.18034555 -0.124851115
-0.28589404 0.26134598 -0.17861715 -0.24022372 -0.14376885 -0.27066773 0.25010547 -0.13738701
-0.1238286 0.12171201 -0.30172405 0.2847501 -0.13756178 -0.23134719 -0.13057098 -0.29032016
-0.071190424 -0.06978867 0.014644336 -0.21914972 -0.3138871 0.30486906 -0.103058696 -0.038356815
-0.11934029 -0.30375427 0.20976447 0.06356869 -0.13540284 0.061709005 -0.32093483 0.32069162
-0.07481708 0.17299813 -0.11005724 -0.30921808 -0.2681888 0.20405383 -0.048023038 0.0016643623
-0.32234016 0.3320033 -0.05298316 -0.19888678 -0.102973044 -0.3078648 -0.18273099 -0.1994288
-0.13871613 -0.17713931 -0.31844014 0.3409543 -0.036103465 -0.16835362 -0.0993628 -0.29941797
-0.21569139 0.20525725 0.0044968924 0.26077893 -0.30896124 0.34646168 -0.0229563 0.04258891
-0.09818824 -0.2838578 -0.1319157 -0.18761158 -0.14389153 0.15452306 -0.2933321 0.34693733
-0.013640064 0.0014893598 -0.09847735 -0.26270193 0.1715523 -0.08804233 0.29377806 0.08835256
-0.27373946 0.3442669 -0.0088904025 0.22160134 -0.10107258 -0.234929 0.20892195 0.07742827
-0.15333252 -0.052117556 -0.24921173 0.33888564 -0.007848458 0.27892354 -0.10546127 -0.20274475
0.22606394 -0.27774194 0.25706822 -0.104973964 -0.21967772 0.32957888 -0.009584298 0.00863959
-0.11105929 -0.16645372 0.14227724 -0.28954163 0.26520497 -0.16301036 -0.1859684 0.31599703
-0.013442723 -0.2627724 -0.116099484 -0.12998715 -0.04687538 -0.20020694 0.057595823 0.19416803
-0.15055227 0.2994916 -0.01880085 0.1389092 -0.122770675 -0.09423517 -0.11055286 -0.071908
0.20521098 0.18833908 -0.11121995 0.27855068 -0.026746191 -0.16645437 -0.13017681 -0.060225733
-0.20594397 0.16739279 0.23812081 -0.15754376 -0.06888708 0.25336254 -0.035498157 0.23628987
-0.13753626 -0.028596496 0.06044581 -0.025284844 -0.22462876 -0.10650227 -0.025223926 0.22502688
-0.04509489 0.11268006 -0.14344215 -0.0016086487 0.071569264 0.18454492 -0.38369846 -0.14008388
0.01733974 0.19516341 -0.055798747 0.18976036 -0.14953753 0.020552415 0.037590798 0.016133161
00000000: 56db 54bf c44d 0d3e ec99 49be e971 0e3d
00000010: b982 38be 816d ecbd 0830 8b3d a104 a33d
00000020: 251d 1cbe 8e00 4a3d 1efd 3fbf 678b 853d
00000030: 4ec9 4ebe cf9a 9bbb 6815 a73e 0fc3 fb3d
00000040: f604 a53d ef2b 2d3d 1e23 22be 88d6 883d
00000050: 57c4 2abf 9186 9bbc a730 53be bd52 41bd
00000060: 943f 91bd d3a1 a63d 1b6c 85be 3e67 103e
00000070: 3e51 2ebe c0b1 b83d ed81 15bf aff7 23be
00000080: 3518 54be 0d20 b2bd 3f05 57be b004 973e
00000090: dab0 9c3c a959 03be 7d80 3fbe 24c9 f13d
000000a0: 7064 00bf 1304 7a3e 2406 50be d585 f8bd
000000b0: 82cb 6b3e c03e 373e 75f2 55be 97f8 0dbe
000000c0: fbfc 51be 8556 163e 978c d8be dd4e d0bd
000000d0: 83c0 48be 99da 1fbe eac7 8fbc 9a19 31be
000000e0: 490e a4bd 99d9 89be 5f6e 67be 05d3 353e
000000f0: 3587 b3be a695 08be 9fe8 3ebe 6062 43be
00000100: f26b aa3e 7262 713e 57dc 533e 1b6c 8abd
00000110: 318c 7dbe d414 553e 9ef0 91be 110f 2dbe
00000120: e620 32be e158 63be beda 8abe 30f7 373e
00000130: 0c5a 87bc bbcf 22bd 5158 89be 9f27 723e
00000140: 21cd 68be d690 24be df0f 23be 0a67 7dbe
00000150: 0924 28be 6bf5 85be 81ac 383e f1b1 ffbd
00000160: b460 92be 24cf 853e 6ae7 36be 35fd 75be
00000170: 2438 13be f694 8abe d30d 803e 2eaf 0cbe
00000180: d999 fdbd 2544 f93d 937b 9abe c4ca 913e
00000190: ffdc 0cbe 47e6 6cbe 66b4 05be d8a4 94be
000001a0: 49cc 91bd 5ded 8ebd ccee 6f3c c968 60be
000001b0: cfb5 a0be cc17 9c3e 7010 d3bd 091c 1dbd
000001c0: af68 f4bd ae85 9bbe 7fcc 563e 4d30 823d
000001d0: 0ba7 0abe 95c2 7c3d 9251 a4be b131 a43e
000001e0: b239 99bd 6c26 313e b165 e1bd d551 9ebe
000001f0: 0b50 89be 7df3 503e ceb3 44bd bb26 da3a
00000200: c509 a5be 56fc a93e df04 59bd faa8 4bbe
00000210: 88e3 d2bd 74a0 9dbe d51d 3bbe 1037 4cbe
00000220: 9a0b 0ebe 0264 35be 960a a3be 9091 ae3e
00000230: 3ae1 13bd e464 2cbe b97e cbbd 504d 99be
00000240: 34de 5cbe f52e 523e ab5a 933b d184 853e
00000250: 2b30 9ebe 6d63 b13e da0e bcbc b571 2e3d
00000260: ea16 c9bd cf55 91be e914 07be 401d 40be
00000270: 4d58 13be 4b3b 1e3e a02f 96be c5a1 b13e
00000280: 937a 5fbc 9f36 c33a 7eae c9bd de80 86be
00000290: 68ab 2f3e 8a4f b4bd 146a 963e 30f2 b43d
000002a0: 9427 8cbe c043 b03e 0da9 11bc 76eb 623e
000002b0: 24ff cebd 3a91 70be a3ef 553e b692 9e3d
000002c0: 3303 1dbe 3879 55bd 5c31 7fbe 6b82 ad3e
000002d0: d296 00bc 11cf 8e3e 14fc d7bd 529c 4fbe
000002e0: 4e7d 673e 3134 8ebe 729e 833e 97fc d6bd
000002f0: 32f3 60be 90be a83e 7607 1dbc 118d 0d3c
00000300: 0e73 e3bd d872 2abe 20b1 113e cd3e 94be
00000310: f2c8 873e 30ec 26be 806e 3ebe 5dca a13e
00000320: de3e 5cbc 1b8a 86be 91c5 edbd 5a1b 05be
00000330: 6600 40bd 0c03 4dbe 99e9 6b3d fcd3 463e
00000340: 602a 1abe f756 993e 3d04 9abc 373e 0e3e
00000350: 316f fbbd 5efe c0bd 8a69 e2bd 8044 93bd
00000360: d422 523e f6db 403e 49c7 e3bd 329e 8e3e
00000370: d41a dbbc 0473 2abe 124d 05be 42af 76bd
00000380: fae2 52be 0469 2b3e f1d5 733e 2753 21be
00000390: ab14 8dbd bcb8 813e 8466 11bd f9f5 713e
000003a0: 4ed6 0cbe 3343 eabc 0796 773d 2922 cfbc
000003b0: 1505 66be dd1d dabd 68a2 cebc 726d 663e
000003c0: 6bb5 38bd cec4 e63d 80e2 12be 4bd9 d2ba
000003d0: e892 923d 58f9 3c3e 2074 c4be 2672 0fbe
000003e0: 120c 8e3c ebd8 473e 3a8d 64bd 8a50 423e
000003f0: 5e20 19be 8a5d a83c cff8 193d b129 843c

fc.bias f4 [36]
1.0057372 1.0048828 1.0038913 1.0026418 1.000999 0.99909955 0.9970253 0.9948511
0.992533 0.99007106 0.9876045 0.98504114 0.9822715 0.9790271 0.97554135 0.9719183
0.9681893 0.9640867 0.95989895 0.955782 0.95195115 0.94840616 0.9452915 0.9426303
0.9405419 0.93899995 0.93808043 0.93774325 0.93779165 0.93844223 0.9397435 0.94149005
0.943276 0.94540364 0.94777256 0.9501876
00000000: ffbb 803f 00a0 803f 837f 803f 9156 803f
00000010: bc20 803f fdc4 7f3f 0d3d 7f3f 90ae 7e3f
00000020: a516 7e3f 4c75 7d3f a6d3 7c3f a82b 7c3f
00000030: 2576 7b3f 85a1 7a3f 14bd 793f a3cf 783f
00000040: 41db 773f 63ce 763f f0bb 753f 21ae 743f
00000050: 12b3 733f bfca 723f a0fe 713f 3850 713f
00000060: 5bc7 703f 4d62 703f 0a26 703f f10f 703f
00000070: 1d13 703f c03d 703f 0893 703f 7e05 713f
00000080: 897a 713f f905 723f 39a1 723f 7f3f 733f
